model/best_model_weights.pth (torch, 179701 bytes, 10 tensors)

block_1.0.weight f4 [32, 1, 3, 3]
00000000: 153a 363e 48d5 373e 4dbc 60be 6eed 4b3e
00000010: bea2 09be 5e13 f0bb d3b8 9cbe db42 1c3e
00000020: 3070 773e c40e acbe ebe2 a43e 7d49 70bd
00000030: d72f 483e 4168 b33d 6290 c03d 389a 11be
00000040: 49b7 393e 490f fdbb d791 a13b 2fee 273e
00000050: d59c 42be 16fe bcbd f059 d7bd a38e a23e
00000060: e979 86be 67ab e3bd 9c99 c9bc a10d 82be
00000070: d21b 22bd dc1a d6be 98a9 a43e 1e6a bfbe
00000080: 9d75 853e 6d57 1a3d 8c81 50be ce28 233e
00000090: 06a2 0b3d 63aa 993e fee5 b9bd 99fd 7abe
000000a0: 0505 2b3e e1f9 0bbe 327a 233e 4971 ba3e
000000b0: ed18 3e3e fe49 10be dbf8 f03d 2723 803d
000000c0: 402d e83d bf98 bebe 1cb9 c8be 9036 77bd
000000d0: 7f29 92be 314c 913e ad64 a33d b0b5 493e
000000e0: f320 c23d fb2d c13c 6bdb 9e3e df66 ccbe
000000f0: a681 b0bc 0598 b7be 9b0b ac3c ede6 eabd
00000100: 81ea 8f3d e84f 55be abdb 9b3e 3a40 97be
00000110: 6fb6 d6be d36b f6bd d63d e73e 2e2b b33d
00000120: 4f09 c03e d5c5 b6be 7bd2 bebe 02bb 7cbe
00000130: 297a 92be 9045 b33d 64ae 003e 46b6 913e
00000140: d1a2 53be 1cdb 49be 87e6 a03e 472b f9bc
00000150: 966c 153e 7177 2abe 9fe8 b93e 3e80 c7be
00000160: 4aca 9dbe 18d6 813e ef4e 613d 2773 2ebe
00000170: 90aa 893e 49a5 d73e 26cf bebe b841 f7bd
00000180: 29fd d23e 531e 88be 445b 50be 56dc edbd
00000190: a288 c8bd 89ee 3e3e b8d0 943d 2d8b 54be
000001a0: d4ee 963d 0c6a 02be 08fb 23be c3f9 0abe
000001b0: 7ab7 a7be f58d 78be 2d66 103f d184 953e
000001c0: f224 373e 0f6a bfbe 613a 2ebe da56 78bd
000001d0: c606 653d b5af 40be 1717 a3bd d4a4 05be
000001e0: a2a1 8c3d 971b 7cbd 0c6c c53c e61a 19be
000001f0: d39c 93bd 9ef2 bbbd a00d 4bbe 14a8 63be
00000200: 4885 b03e 5bd5 9dbe fdd8 9f3e fc86 ce3d
00000210: 3552 debe 994b be3e f45c e6bc f53a 9cbc
00000220: 4867 88be ec7c aebe 64c6 e33d 1db2 5bbd
00000230: 03ea d53d a309 67be 2f93 aa3e 1a76 5cbe
00000240: 0cea 20bc c28e 6e3e e7bf 8b3e 8ed2 933e
00000250: 64ee ca3e 7f09 dcbe 041c 0b3e 87d7 2ebe
00000260: 53ef 2ebe 44ce 97be 9a0d ab3e c1a6 cfbe
00000270: 63c3 843d 6d9f 1f3e 769c 503c 4e46 a4be
00000280: 0d86 aa3e 469c 2d3d bec0 ef3d 48f5 a2be
00000290: 4393 323e 40c9 0fbe 3467 64be 46d9 9f3e
000002a0: 4aa4 a33d 51df 3ebe e970 23be 8830 5abd
000002b0: 6188 883e c9a5 a0bd 2b29 3fbe e3cf 423d
000002c0: f288 95be 5069 4a3e 8f6d bc3e 4212 b9be
000002d0: 6f88 cf3d 0262 843e dfa2 483d 8944 51be
000002e0: 5634 7b3e 6fad 513e 2dee b83d 9a1f e7bd
000002f0: 44ad 3ebe f262 5a3d 664d 04be c2fe 8ebe
00000300: f578 983e 37ef a63e 986e 4ebe e054 ec3c
00000310: aa87 083d b11d 10be 1373 ea3d 7873 1c3e
00000320: f735 91be e35c 17be d93e 963e 4a01 143e
00000330: 112c 9a3c 420e 7fbe 250a 2abe 29bf 9cbe
00000340: 0661 bf3c 0ccf 3f3e dede 473e 7acd 823e
00000350: 30e6 bebe d459 9abe 28b5 5dbd afe2 c73e
00000360: 5803 3b3e 6ef6 ebbd a9ca 043e 64c0 a3bd
00000370: f26f 99be 78c0 5e3e cdb7 1abe 8938 34be
00000380: 0c0f b0be 3538 593e 43f1 2d3e 989f 153d
00000390: fe27 6bbe db24 e2be 2948 c9be 767b 823e
000003a0: 5cfa 323e 801e 893e 443f 9e3e e508 ef3d
000003b0: e528 fa3d 52d8 aebb 4744 b3be 2c1a 48be
000003c0: 4fe1 403e 0bf3 93be b392 703d 9afd 14be
000003d0: 4d59 2a3d aee4 2abe e051 4ebe daae 2d3e
000003e0: d418 013c 656a 803e faaa 2dbe e770 25be
000003f0: 18f6 c9bd 431e 5abe b540 07be df26 c6be
0.17795594 0.17952454 -0.21946831 0.19914791 -0.13440987 -0.0073265275 -0.3060976 0.15259878
0.2416389 -0.33605015 0.32204375 -0.058663834 0.195495 0.08760119 0.09402539 -0.14218986
0.18136324 -0.0077227694 0.0049307155 0.16399454 -0.19005139 -0.092281505 -0.10515201 0.31749448
-0.26264885 -0.11116677 -0.02460938 -0.25401023 -0.039577313 -0.41817367 0.3216064 -0.37385648
0.26066294 0.037681032 -0.20361918 0.15933535 0.034090064 0.30012807 -0.09077071 -0.24510802
0.16701134 -0.1366954 0.15964583 0.36414555 0.18564196 -0.14090726 0.117662154 0.06256705
0.11336756 -0.3722591 -0.39203727 -0.06035477 -0.28547284 0.28378442 0.07978187 0.19698215
0.09478941 0.023581496 0.31026778 -0.39922234 -0.021546196 -0.3585817 0.021001628 -0.11469827
0.0702715 -0.20831263 0.3044103 -0.29541188 -0.4193606 -0.120322846 0.45164365 0.0874847
0.37507102 -0.3569781 -0.3726996 -0.24680713 -0.28608826 0.08753502 0.12566525 0.28459376
-0.20667578 -0.1971249 0.31425878 -0.030416144 0.14592203 -0.16647126 0.36310288 -0.3896503
-0.30818397 0.25358653 0.055006918 -0.17036115 0.2688794 0.4211829 -0.37267417 -0.12073082
0.4120877 -0.26585636 -0.20347315 -0.11614291 -0.09791686 0.18645681 0.072663724 -0.20756216
0.073697716 -0.12735766 -0.1601373 -0.13571839 -0.3275717 -0.24272902 0.5640591 0.29202893
0.17885187 -0.37385604 -0.17014457 -0.060629703 0.055914663 -0.18817027 -0.079633884 -0.13051158
0.068667665 -0.06154975 0.024099372 -0.14951667 -0.07207646 -0.09177135 -0.19829416 -0.22232085
0.34476686 -0.3082684 0.31220236 0.1008434 -0.43422094 0.3716705 -0.028120495 -0.019071082
-0.26641297 -0.34079683 0.111218244 -0.05363666 0.10445025 -0.2256227 0.33315417 -0.21529427
-0.009821426 0.23296645 0.27294847 0.28871578 0.39635003 -0.42975995 0.13584906 -0.17074405
-0.17083482 -0.29649556 0.33408815 -0.4055691 0.064825796 0.1558816 0.012732616 -0.32084888
0.33305398 0.042385362 0.117066845 -0.3182776 0.17438988 -0.14041615 -0.22304994 0.31220454
0.0799032 -0.18639876 -0.1596104 -0.05326894 0.2666655 -0.07844121 -0.18668048 0.047561537
-0.29206043 0.19766736 0.36802337 -0.36146742 0.101334445 0.25856024 0.04898345 -0.204363
0.24531683 0.20476316 0.090298034 -0.112853244 -0.18620783 0.053317018 -0.1292015 -0.2792874
0.29779783 0.3260438 -0.20159376 0.028849065 0.033332504 -0.14073826 0.1144773 0.15278423
-0.28361484 -0.14781527 0.29344824 0.14453617 0.01881984 -0.24907783 -0.16605432 -0.30614594
0.023361694 0.18731326 0.19518611 0.2554739 -0.37284994 -0.30146658 -0.054127842 0.39040133
0.18262994 -0.11521612 0.12967934 -0.0799568 -0.2996822 0.21753109 -0.15109177 -0.17599691
-0.3438648 0.21212848 0.16986565 0.036529154 -0.22964475 -0.44168743 -0.39312866 0.25484818
0.17478317 0.26781082 0.30907643 0.11671618 0.12214831 -0.005335846 -0.3501303 -0.19541234
0.18835948 -0.28896365 0.058733653 -0.14549866 0.04158907 -0.16688797 -0.2014842 0.16961232
0.007879455 0.25081173 -0.16959754 -0.1615635 -0.09861392 -0.21300606 -0.13208278 -0.3870153

block_1.0.bias f4 [32]
00000000: 489b 703d d3aa 65be 7ce3 8dbe 237c 6fbe
00000010: cac3 d9be ad7b febe 73ab 813d 42cf 1dbe
00000020: 098e c8be 3b8e 6e3d 2f1d 5b3d d7a5 babe
00000030: b40a adbd 4109 60be c96d 8d3d 4252 cdbe
00000040: 13af 8cbe e142 b73d dad2 8bbe 44d0 e73c
00000050: 73e8 87be 67f8 703d f834 183e 5bcd 9f3c
00000060: 3ba8 f4be bcf9 83bd 7bf0 363d ce71 1ebe
00000070: 7b87 c03d 3de4 3c3e 3afa d63c f466 f1bd
0.058741838 -0.22428446 -0.2771262 -0.23387198 -0.42532188 -0.49703732 0.063315295 -0.15411094
-0.39170864 0.05824111 0.05349463 -0.3645465 -0.08449307 -0.2187853 0.069057055 -0.4010182
-0.2747732 0.08948303 -0.27309304 0.028297551 -0.26544532 0.058830645 0.14863956 0.0195071
-0.477846 -0.064441174 0.044662934 -0.154731 0.09400841 0.18446441 0.026242364 -0.11787215

block_1.2.weight f4 [32, 32, 3, 3]
00000000: 359f 49bc 856d 96bb 301b 993d 59b9 edbb
00000010: babe cbbb d342 0d3d cacf 36be 8d95 15bc
00000020: 1664 7cbd ec46 343e 25e0 52bc 7fec d43d
00000030: 200a a03d 57c4 0abe cbcd 8cbd 8699 95be
00000040: a4d2 07bd f2cb f5bb 2c15 41bc 5d93 8d3c
00000050: 2468 1bbd 4648 42be cdcb 6a3d b06f c4bd
00000060: 5cfa 82bd d066 a03d 3def 843d e504 3cbe
00000070: 5210 95bd 81b8 433e 7d3d 16bd 287b 5fbd
00000080: b9d4 4c3e 37e1 c5bd fb2e dc3c b917 03be
00000090: 4b99 4fbd 32fb eabd a13d 5bbe aafb c8bd
000000a0: c7eb a93c b74a b7bd e585 61be 18ea 80bc
000000b0: e326 313c 3ec4 babd b359 dfbd f75c 5f3d
000000c0: 957b 07be 6a0b 473d 9b70 303e 533c 033c
000000d0: 0176 ea3d 8249 1e3d a906 6bbe 84b8 7ebd
000000e0: d998 8ebd 6001 423d 450c 623e ec3c 7a3d
000000f0: ca5f 663e 201d e8bc e192 363d c19e c13b
00000100: 6843 043d 4cb0 2b3e 7d4d 82be 1e67 8dbe
00000110: 5b35 c7bd 3ff2 afbd 4717 1d3e e5f7 783e
00000120: 7c4e 0dbe 5f08 7a3d ece0 99bd cc3e d6bd
00000130: 313a debd ef0c f0bd 29f9 bebd dd36 f0bd
00000140: 31c6 19bd ff72 863d 316c 0cbd 43e7 b13d
00000150: faf0 86bd 7e77 c73b c4c7 0e3d c04c 15be
00000160: 1aad 3a3e 8aa6 273d 2e29 0ebe fca6 4ebd
00000170: bd92 003d 4e2b 5e3e 9822 033e 861d 02bd
00000180: deb6 543e 5cb6 563d 6242 20be 15ca f8bc
00000190: 887e d4bd 22fa 01bd 8559 6dbd 8f6e 3bbb
000001a0: 76b2 763d ed0f c9bd 31df e63b 0ba9 f0bd
000001b0: cebc 3bbe 5f90 d13c 3ae0 c63c c2b7 333d
000001c0: f76c b5bd b0b7 c2bd 89b1 35bd d4a6 503d
000001d0: fc58 e0bd 01cf 19be 137c e0bd c45b ccbc
000001e0: b4b2 a5bd ef0e f53b ba7f cd3c c179 bcbd
000001f0: 8215 873b aae3 8ebd 0135 c0bc f82c f03d
00000200: 257f 363d 9cc4 ce3c 4492 f3bd c94a 04be
00000210: 05e0 43be 5d78 c53c 7287 9c3d dd8b 6bbe
00000220: 270f be3d f7b0 363d f6d9 f1bd 3755 b7bd
00000230: 22f8 863d c5c0 afbd e125 013c f992 f9bd
00000240: 2d1c 42bd c427 073d 398d d0bc 690c 153e
00000250: d141 623e 37d3 373e 1765 9a3e 6b8d 83bd
00000260: c6ef 743d acf9 b33d 399a 48bd 067a a03d
00000270: aa8b 5fbe fae8 5bbe 9a50 d6bd 23d1 91be
00000280: 702f 8f3b 365d 3ebd 36c9 fcbc ea48 ecbd
00000290: aed4 88bd 62f3 05be f425 49bd e23c a33d
000002a0: a5b6 cebd 243d 033e c140 083d 62bb c4bd
000002b0: 3c34 87bd bea6 5abd fbbd 913d 2832 943d
000002c0: 5523 81bc fcfb bc3c 3860 c4bd e655 cabc
000002d0: d1e2 da3d f4e4 243d e9f9 973d e0ee 483d
000002e0: 4ad9 d93d ec77 aa3d 8c02 00be 942f 18be
000002f0: 6aec eabd f75c 2b3b a526 113e dfca 12bc
00000300: 59ac 81bd 8b0d 54bd dd25 cfbc 05eb c5bc
00000310: 81ea 41bd 5028 7bbe d680 013e 1c36 d539
00000320: bcee 8cbd 8fd8 623b cb8e a43d 7acd a83d
00000330: 303d 323d b218 28be f95d c2bd 30fb bebd
00000340: ce18 c53c be6b 9b3d e58a f2bc dc02 e2bd
00000350: fda2 edbc 03a5 643d 6891 263e 28ed bdbd
00000360: 6c19 43bd c2b4 47bd 4580 7abd ce67 8dbd
00000370: ee38 00be 60bf ce3c 936a 81bd ba74 b53d
00000380: 3310 313d 8466 7cbd 9b70 07be 6a53 f2bd
00000390: b27e 21bd 1755 adbc 185c b2bc ab0c 99bd
000003a0: 089c 1abd 303e 163e 1189 34be ea4e 3ebe
000003b0: 0de1 c4bd 4066 59bd 795f bc3d c57a a53d
000003c0: 5ba0 d73d e73e a13d 8724 fa3c 782a d7bd
000003d0: 5f8e cbbd 4d6b d2bd c3f6 e3bd 1370 0e3e
000003e0: 758c f8bd 9c2f acbd daa8 1ebd 73a7 46be
000003f0: d722 62bd a0bf 43bd a9c8 f8bc e176 e1be
-0.012306024 -0.0045906925 0.07475889 -0.007254761 -0.0062178047 0.034487557 -0.17852703 -0.009129894
-0.061618887 0.1760518 -0.012870823 0.103966706 0.07814431 -0.1355146 -0.068751894 -0.29218692
-0.033159867 -0.007501119 -0.011784833 0.017282182 -0.037941113 -0.18972883 0.057323266 -0.09591615
-0.063954085 0.0783211 0.064909436 -0.18361242 -0.072785035 0.19113351 -0.036679734 -0.05456081
0.20003022 -0.09662097 0.02687787 -0.12802018 -0.0506833 -0.11473693 -0.21410228 -0.09813626
0.02074231 -0.089497976 -0.22023733 -0.015736625 0.010812494 -0.091194615 -0.10905781 0.054532018
-0.13230737 0.04859487 0.17230456 0.008009988 0.11448289 0.03864432 -0.2295176 -0.062187687
-0.06962747 0.047364593 0.22074993 0.061093256 0.22497478 -0.0283342 0.04457367 0.0059088175
0.032290846 0.1676647 -0.25449744 -0.27617735 -0.097269736 -0.08591127 0.15340911 0.24313314
-0.1379947 0.06104314 -0.075136036 -0.10461196 -0.10850943 -0.11721217 -0.09324867 -0.11729214
-0.037542526 0.065649025 -0.034282867 0.08686688 -0.065889314 0.0060872426 0.03485848 -0.14580059
0.18230096 0.04093031 -0.13882896 -0.050452217 0.03138994 0.21696207 0.12806165 -0.031766437
0.20772883 0.052420005 -0.15650323 -0.030369798 -0.103756964 -0.031732686 -0.0579467 -0.0028599834
0.060228787 -0.09817491 0.0070456495 -0.117509924 -0.18333742 0.025581537 0.024276841 0.043876417
-0.08858674 -0.09507692 -0.044358764 0.05094035 -0.109544724 -0.15020372 -0.10961165 -0.024946101
-0.080907255 0.007478587 0.025085319 -0.0920291 0.004122437 -0.06977017 -0.023462774 0.11727327
0.04455485 0.025240235 -0.11893132 -0.12919153 -0.19128425 0.024105245 0.07643022 -0.23002572
0.09280234 0.04460236 -0.11809151 -0.089518 0.06590296 -0.0858169 0.007882566 -0.12186236
-0.04739015 0.032996908 -0.025457965 0.14555515 0.2209542 0.17951666 0.3015525 -0.06423458
0.05979898 0.087878555 -0.048975203 0.07835774 -0.21830621 -0.21475592 -0.10464592 -0.2847987
0.0043696687 -0.04647561 -0.030857664 -0.11537345 -0.066811904 -0.13081124 -0.04910846 0.07970597
-0.100934304 0.12816292 0.03326488 -0.09606053 -0.0660176 -0.053381674 0.07116314 0.07236129
-0.015763918 0.023069374 -0.09588665 -0.024699163 0.10687793 0.04025741 0.074207135 0.049055934
0.10637148 0.083236545 -0.12500972 -0.148619 -0.11470874 0.002614794 0.14174898 -0.008959501
-0.06331701 -0.051770728 -0.02528661 -0.024159918 -0.04734278 -0.24527097 0.12646803 0.0004066684
-0.068814725 0.0034613942 0.08035048 0.082423165 0.043515384 -0.1641567 -0.0949058 -0.09325254
0.02405968 0.075889096 -0.029607246 -0.11035702 -0.029008383 0.05582143 0.16266406 -0.092737496
-0.047631666 -0.04875637 -0.061157484 -0.06904565 -0.12521717 0.02523774 -0.063191555 0.088601544
0.04322834 -0.061621204 -0.1322655 -0.11832316 -0.039427467 -0.021158738 -0.02177243 -0.07473119
-0.03774646 0.1467216 -0.17630412 -0.18584791 -0.096132375 -0.05307603 0.091978975 0.08080057
0.10528632 0.07873326 0.030534996 -0.10506147 -0.099392645 -0.10274372 -0.111310504 0.1390994
-0.12136165 -0.08407518 -0.03873525 -0.19399814 -0.055209007 -0.04779017 -0.03036912 -0.4403601

block_1.2.bias f4 [32]
00000000: 2fd2 b03d d9f3 f23d 1293 c43d d4da c43d
00000010: 48c9 4f3e c118 93bd f6ec 51bd fc82 043d
00000020: 9a28 e0bd 9ec8 c9bd 3f68 633e 8b43 4e3d
00000030: 2382 b83d 7ee4 3dbc 8da7 ca3d 98b3 fa3d
00000040: 9f32 42be 8a51 cc3d acbf 2c3e ef3d 623c
00000050: 3add d13d 6ae0 2ebe 6467 da3c d5da 0d3e
00000060: 3049 e43b 2c18 2a3d 3487 4b3e 5529 8dbd
00000070: 6057 d03c 0723 5bbd 4a7c d73d 7047 87bd
0.08633839 0.118629165 0.09598364 0.09612051 0.20291626 -0.07182456 -0.051251374 0.03235148
-0.10945244 -0.09852718 0.22207735 0.050357383 0.090091966 -0.011590121 0.09895239 0.12241286
-0.18964623 0.0997649 0.16869992 0.013808711 0.10247274 -0.17077795 0.026660629 0.13853009
0.0069667324 0.04152696 0.19875795 -0.06892649 0.025432289 -0.0535002 0.10521753 -0.066054225

block_2.0.weight f4 [32, 32, 3, 3]
00000000: 959c 963e 2aea bf3d d9b1 ccbd 6919 1d3e
00000010: db04 29bd 198d 0ebe 92f5 013e 9dde d13d
00000020: 7d79 31be 14d3 743e 9a21 9cb9 aa40 f8bd
00000030: 3496 033e 7640 edbd a992 f1bc c70a 1f3d
00000040: 3f6f 76bd 9338 4b3d a705 59be 89bd 3dbe
00000050: b4d0 7cbd 87d9 3eba c1c5 95be e9ad fc3c
00000060: ed38 b53d ec8a 02be 5d40 693e 9975 733d
00000070: fc6f e7be 1f66 ae3d 822b 36be 416d 04bf
00000080: 19d9 043e 348c 6ebc ac6a dabe e941 993d
00000090: 4ec7 a13e b61e 233d c2de 6c3d a0ac ec3d
000000a0: db8b c1bd 5f4c 293c ab3e da3d 8cb8 043e
000000b0: b408 173e 331e d5bd 5bec a8bc 60e7 5b3d
000000c0: 7934 36bd 4748 833d 4a78 67bd 571d ecbc
000000d0: f2de f2bb 871a 143d 0a21 b33d f32e 81be
000000e0: 4734 3abe 7ac9 c9bd 9eba 00bf fb9e 8bbe
000000f0: ba2d 0d3d 52c4 a3bc 256e a6be ee59 773e
00000100: f092 3b3e 603b 053e 65b7 9b3c 7aa5 7dbe
00000110: 2fb5 0bbe bfcb c1bd ac38 f0bd a919 28be
00000120: 001d 9ebd c386 833d 44a6 473d 9c65 933d
00000130: e5af 64bd e224 78bd 9324 1b3d 7aa3 c3bc
00000140: d5aa 80bd 1c6f 4dbc 42bb 333e 4ed0 273e
00000150: d209 013e 0849 973d a53f 4a3d fd38 b23c
00000160: 0136 c1bb 8c9a 9abd 3165 e53d c8fd ccbd
00000170: f797 443e dea9 bebd 512f 29be 0fc5 4a3e
00000180: f45e f3bc cf04 aab9 41e0 ba3e 6a77 06be
00000190: bfcf ed3d 4674 093d e41c e13d 0e66 fd3d
000001a0: 1621 48be 4508 843d d199 f33d 6b81 48bd
000001b0: 3804 313e 33c2 41bd e1a3 71be ee86 323e
000001c0: 55f0 b0bd 420f 483c a91e 28be d1d1 40be
000001d0: 742e 3f3d f9b2 1ebe dc6b 3bbe bfbe 093d
000001e0: da7e 54be 9e60 24be dab0 bdbc fba0 41be
000001f0: f4f7 973c 3194 223c 8c7d 83bd fd49 273e
00000200: d8a1 1a3d c62a 683d df30 1f3e a8c6 3a3d
00000210: 3de0 8b3c 4335 493e d696 483d 8b08 af3d
00000220: 8b5d 933d 089b 7a3d 3481 ec3d b622 9fbd
00000230: 645b f93c 0913 ef3d c6f0 8cbd 66f2 7ebc
00000240: b81c 09bd 4f39 1d3e 748a 2cbc 1343 c63d
00000250: 211d 163e 80fc b3bd 7c50 adbd 3449 623d
00000260: b968 2dbe af3c 263d 83b2 e2bc f7c8 623d
00000270: 6e50 323e 25e3 61be 4500 bfbb 3136 1c3e
00000280: fc0d 11be 9287 14bc d589 9f3e f115 aebd
00000290: d5fd 0cbc 21cd a0bd d1a1 aabe caf1 913d
000002a0: 868b 3e3d 3fed 37be c780 993c 2a8c 193e
000002b0: c997 2bbe 0836 ba3d a8ea 26be c430 31be
000002c0: 1f5c efbc 5a35 e4bd ce21 063d 8dfa 82bd
000002d0: 6d2e 813d 6dd7 e63d 89f9 d7bd f54e 1b3d
000002e0: 350f 73bd d2e3 243c 0f85 b939 fffc 1c3e
000002f0: 6882 4a3d 494d b83c e2f4 2d3e b526 b13d
00000300: 90c5 7b3d 88cd ff3c 5c87 fabd 09bb e13c
00000310: 4fe0 7bbd 208f f0bc 6e9a 1d3d eea3 8bbd
00000320: 1efe 86bc 52b1 efbc b789 05bd afd7 3e3d
00000330: 4152 c53d 642c 06bd 69ac a0bd 1fb5 c63d
00000340: 210e bbbc 587a 183d 96ae 883e afb2 8dbd
00000350: ebbc f73d d142 da3d b64b 53bd fd87 0f3e
00000360: 9260 91be 8341 b7bd 1d4c e83d 0540 fcbe
00000370: 2c2c ebbd 34b1 173d e3df 67be 5b5b af3d
00000380: 3546 3fbd 4c43 b43d 7db4 1bbe 77fb 06be
00000390: a7fe 323e 8451 d3be 4530 c8be 4998 96bc
000003a0: 5785 f2bd 660f c13d cc6b 833d 7823 c1bd
000003b0: 75eb f53d da10 64be 901c 9ebc 45d7 223e
000003c0: ca8d 1cbe 23ec 183e bc97 a93b c2d9 153d
000003d0: 4225 63bc 4514 b13d f81e fa3d 5224 953d
000003e0: ee5f 4d3a 66a7 643c d616 a03c 2cff 02be
000003f0: 1830 b03d 7c4e 07bf c098 863d aa12 82be
0.29416338 0.09370835 -0.09994859 0.15341724 -0.041264396 -0.13921012 0.12691334 0.10247538
-0.173315 0.23908645 -0.00029779674 -0.12121709 0.12850267 -0.115845606 -0.029488878 0.038828637
-0.060164686 0.0496145 -0.21193562 -0.18529333 -0.061722472 -0.0007280339 -0.29252437 0.030844646
0.08848748 -0.12748307 0.22778459 0.05943832 -0.45202625 0.08515572 -0.17790034 -0.5172921
0.12973441 -0.014559794 -0.4265951 0.074832745 0.3159737 0.03982421 0.057829626 0.11556363
-0.094505034 0.01033315 0.10656484 0.12961024 0.14749414 -0.10406151 -0.020620516 0.053687453
-0.044483636 0.0641027 -0.0565112 -0.028822584 -0.007411831 0.03615811 0.08746536 -0.25231132
-0.18184005 -0.09852882 -0.50284755 -0.2726973 0.034467436 -0.019991074 -0.3250591 0.24155399
0.18317771 0.13010931 0.019008348 -0.24770156 -0.13643335 -0.094626896 -0.11729559 -0.16416039
-0.07720375 0.06422188 0.048742548 0.07197115 -0.05583181 -0.06058205 0.037876677 -0.023881663
-0.062825836 -0.012538698 0.17551902 0.16388056 0.12601402 0.073869765 0.049377102 0.02175569
-0.0058963303 -0.07549009 0.11200941 -0.100093424 0.19198595 -0.09309743 -0.16521956 0.19801734
-0.029708363 -0.0003242851 0.36499217 -0.1313149 0.1161189 0.033558153 0.109918386 0.12372981
-0.19543871 0.0644689 0.118945725 -0.048951548 0.17286766 -0.047304343 -0.23597671 0.17434284
-0.0863959 0.012210669 -0.16417946 -0.18830039 0.04667516 -0.1549796 -0.18302864 0.033629175
-0.20751515 -0.16052482 -0.023155618 -0.18909065 0.01855085 0.009923027 -0.064204305 0.16336818
0.037752002 0.056681417 0.15545987 0.04559961 0.017074699 0.19649224 0.048971973 0.08546551
0.07195576 0.061183006 0.11548081 -0.077702925 0.030439086 0.116735525 -0.068818614 -0.015560722
-0.033474654 0.15353893 -0.010531057 0.09680762 0.1465955 -0.08788395 -0.08462617 0.055245593
-0.1693448 0.040585216 -0.027673012 0.055367436 0.17413494 -0.22059305 -0.0058288896 0.15255047
-0.14165491 -0.009065526 0.31159845 -0.08500279 -0.00860544 -0.07851625 -0.3332658 0.07126196
0.04651978 -0.17961596 0.018738164 0.14994875 -0.1675712 0.09092337 -0.16300452 -0.17303759
-0.029218731 -0.111429885 0.032747082 -0.06395445 0.06307683 0.11271558 -0.10545642 0.037917096
-0.059340674 0.010064082 0.00035385086 0.15330885 0.04944077 0.02249779 0.16987947 0.08649961
0.061467707 0.031225935 -0.12232849 0.027555006 -0.061493214 -0.029365122 0.038477354 -0.068183765
-0.016478594 -0.029259358 -0.03260204 0.04659241 0.09634829 -0.032757178 -0.07845385 0.09702515
-0.022833886 0.03722605 0.26695698 -0.06918847 0.1209658 0.106572755 -0.051585875 0.14016719
-0.2839399 -0.08948042 0.113426425 -0.49267593 -0.114830345 0.03703423 -0.22644 0.085623465
-0.046697814 0.08801898 -0.1520557 -0.13181864 0.17479955 -0.4127313 -0.39099327 -0.018383162
-0.11841839 0.09426765 0.06417045 -0.09430593 0.120078005 -0.22272053 -0.019300729 0.15902431
-0.15288463 0.14933829 0.005175559 0.036584623 -0.013863863 0.08646444 0.12212938 0.07282318
0.0007834424 0.0139559265 0.019542139 -0.12792653 0.08602923 -0.5285413 0.065721035 -0.25404865

block_2.0.bias f4 [32]
00000000: 1540 313e 1f56 5d3e fb4a b43c 4872 343e
00000010: 051f 423c dfd4 9c3d e15d 03be fcc9 af3d
00000020: ca7c db3b be12 f3bd 9a91 0e3e 861e 543c
00000030: 000c 13bd a8fb 813b 6161 c0bb ee2d 18bc
00000040: c960 003e 7712 a6bd 4481 e1bd f7f0 50bc
00000050: 71ff c13d ffb5 2c3e c78e 27be 6695 cb3c
00000060: 3d72 df3d e153 abbb 7905 23be 549d 153e
00000070: 01f3 513e 7bac 8cbd ed30 9f3e e6ef b7bd
0.17309602 0.21614884 0.02200841 0.1762172 0.011848216 0.076577894 -0.1282878 0.08583447
0.0066982256 -0.11868809 0.1392273 0.0129467305 -0.035900116 0.0039667673 -0.0058709835 -0.009288294
0.1253692 -0.08108991 -0.110109836 -0.012752763 0.0947255 0.16866301 -0.16363059 0.024851512
0.10910461 -0.005228505 -0.15920056 0.14610797 0.20502855 -0.068688355 0.31092015 -0.08981304

block_2.2.weight f4 [32, 32, 3, 3]
00000000: 9a09 8b3e 2e98 d13d 4b8a 2a3d 48ac 1bbd
00000010: 95ec 02be 6a2b f8bd 565d f6bd 3cc3 633d
00000020: 9cdd 2abe f019 0dbd 874f febb 8a6c bc3d
00000030: 1bc4 1d3d cb50 303e 4039 ad3d 0fff 1ebd
00000040: 914c 283e eb6c 583d ec35 3e3b 6bf6 90be
00000050: 912f f7bd d121 81bd 38a8 71be 4fa4 e4bd
00000060: e8b8 e03d 8182 09bd a26c 1d3e 5706 4abd
00000070: 370a e83c 7614 253c 6969 9c3d 36b1 733e
00000080: 25b7 1b3e 0f43 e2bc 5c79 f53d c348 80bd
00000090: ea25 8c3d 0440 163d dc8c 15be a0d9 15be
000000a0: 03f0 463c 774a 10be cded 91bd 2aee 48bd
000000b0: 7d15 6dbd 20ca e73d 95fc 9b3b a75d afbd
000000c0: 14f7 f0bd de15 cdbe 6dc7 e2bd 6c7e 79bc
000000d0: 19ac 95be 9cfd e73d 20b5 a13b 3d61 cdbb
000000e0: 87b8 12bd f59f 02be d36b 203d 1743 54be
000000f0: 7195 39be 3de4 3dbe edc7 9fbe e4d4 a03d
00000100: 72ff 51bd 464d 703d 7013 38be 627e 1a3c
00000110: 3cc2 d3bc 5bb5 02be 97df 24be 0386 dcbd
00000120: 5408 e43c 9160 9a3d b64f 50bc ea5a bc3c
00000130: ae99 1d3d ca5a 163d 93cb fbbd 84fb 673b
00000140: 576c bdbd 0ca3 193d fd87 f63c 0032 9f3d
00000150: 877e ce3d c96d 4cbd 0251 0c3c 80fc 6abe
00000160: 7788 edbd 5331 3dbe d2c8 9abd 7868 d5bd
00000170: 8767 14be 1838 21be 3088 fabc 392a c63c
00000180: 27a0 683d d9d0 78bc 1eb1 2ebe 4dea d8bb
00000190: 3d03 0e3e 70e3 ef3d 2b0b 1bbd fc0a 023e
000001a0: 5377 163e 5f17 e1bd cd81 85bd 3273 bc3c
000001b0: 5e01 47bc 33fe 6cbe d4e6 29bd 5cbf a4bd
000001c0: 2e79 26be 52ca 39bd ae70 363d c582 0bbc
000001d0: fbbc afbb 3188 cd3c 0954 113d 77f4 15bc
000001e0: 179e 44bd f142 9d3c 06e6 cebc 14d5 0ebd
000001f0: 5bbf 6cbd 9346 d13c 2f15 aa3d f29c 823d
00000200: 2782 f43c aa39 3abd 9448 c3bb f83e ab3c
00000210: 06b5 dbbd 5f00 f3bd 6415 71bd a1dd 34be
00000220: cc08 bc3d 5f16 413d 9e59 623d 8881 453e
00000230: a24e 4a3d 2b9c 873d 987f 023c ffef c939
00000240: ba94 c23c d780 1ebe b0b7 be3c 66a9 25bc
00000250: 36e3 20be 6a42 ce3d 1082 ccbc 382e 823b
00000260: 4e08 5d3d 385e cb3a f0f6 383d 8e2f 54bd
00000270: 4be5 21ba 758a 403d 2155 a3bc 6450 b03c
00000280: 9b3e 23bb 655e 803d 0628 a4bd c5c5 bfbd
00000290: 50b5 e3bd 5eb0 b5bd 3185 b1bd 46d4 76bd
000002a0: 8604 8ebd c095 95bd 4da0 03be 942e 753e
000002b0: b108 5cbe 2aed eabd 0a5e 37be 7b25 f53d
000002c0: 711a 113e 04af f0bd a42a ca3d a95a 05bd
000002d0: 7168 063e c602 a03d 0a19 973d 114d 8cbd
000002e0: 80c8 54bd 5ba7 9c3b 10f2 c7bd f0bc c8bd
000002f0: e64e 553c 3549 5b3d cc0d 743c d7f1 d3bc
00000300: 3af9 283d 2bc2 043d 4f3b 09bd 2449 a03d
00000310: 15dd 113e 811e d03c 2a46 833c d171 febc
00000320: 3a0e 0e3e be68 33be 0508 79bd e74f cabd
00000330: 2942 5cbe 1ff4 25be f28b 13be 200c 3ebd
00000340: 44a7 bcbb 7ee0 c13a 2455 de3d a20e 833c
00000350: 370d f03d f9a7 a93d e635 4fbe da28 cc3d
00000360: 6524 54be a6be 273e 033e 193e a62e 0b3e
00000370: f5b7 0cbc 22ef 183d 9306 a33c 97b1 59be
00000380: dae9 e4bd 1125 dc3c 3e4d ca3d 8e50 0abc
00000390: 486b 803c dab7 16be 035b a33d 22cb d83d
000003a0: 4c59 96be d93c 61be 6478 aa3d 477d 72bd
000003b0: 8e99 04be bc81 36be c9bc c2bc 56a8 82be
000003c0: 97fd 9cbd 9d75 f3bb ec09 7e3d da88 423d
000003d0: 9e45 d43c cfaa 223d 893f 683d 874f 913d
000003e0: 40f2 4cbd aa4b ee3d 1e6a 643d 31e8 7cbd
000003f0: 18c1 89bd a6e6 a43d 7589 2e3d 4cd2 0e3d
0.27155763 0.10234104 0.041635793 -0.038006097 -0.12785561 -0.121176556 -0.12029521 0.055606112
-0.166861 -0.034448564 -0.0077609452 0.0920039 0.0385171 0.1721832 0.08458185 -0.03881746
0.16435458 0.052838247 0.002902384 -0.28313002 -0.120696194 -0.06305278 -0.23599327 -0.11164152
0.10972768 -0.033571724 0.15373471 -0.049322452 0.028325183 0.010075679 0.07637293 0.2379807
0.15206583 -0.027619867 0.11986038 -0.06263878 0.06843169 0.036682144 -0.14604515 -0.14633799
0.012142184 -0.14090906 -0.07125435 -0.049055256 -0.05788182 0.11317849 0.0047603347 -0.08562785
-0.117658764 -0.40055746 -0.11073194 -0.015227895 -0.29232863 0.11327669 0.004934922 -0.006267695
-0.03582051 -0.12756331 0.03916533 -0.20728718 -0.18123414 -0.18544097 -0.3120722 0.07853106
-0.051269002 0.058667444 -0.17976165 0.009429546 -0.025849454 -0.12764494 -0.16100918 -0.10767748
0.027836002 0.0753795 -0.012714317 0.02299257 0.03847664 0.036707677 -0.12294688 0.0035397718
-0.0924918 0.03750901 0.030094141 0.077732086 0.10082727 -0.049909387 0.008564236 -0.22947884
-0.11598294 -0.18475847 -0.07557835 -0.104203165 -0.14492618 -0.15744054 -0.030582517 0.024190055
0.05679336 -0.015186512 -0.17059752 -0.0066197277 0.13868423 0.11713302 -0.037852447 0.12699503
0.14693956 -0.10990786 -0.06518898 0.023004148 -0.012146322 -0.23143844 -0.0414799 -0.080443114
-0.16257164 -0.045358963 0.044541053 -0.008515065 -0.0053631044 0.025089355 0.035480533 -0.009152523
-0.04800233 0.01919696 -0.025256168 -0.034871176 -0.05779968 0.025546348 0.08304822 0.06377591
0.029847218 -0.04546515 -0.0059595797 0.02090405 -0.10727887 -0.11865305 -0.05885829 -0.1766267
0.09181365 0.047140475 0.055261247 0.19287694 0.049391396 0.066215836 0.007964991 0.00038516519
0.023752559 -0.15478836 0.023280948 -0.0101111885 -0.15711674 0.10071261 -0.024964362 0.003972795
0.053962998 0.001551575 0.045157373 -0.051803164 -0.000617583 0.047007043 -0.019938054 0.021522708
-0.0024909142 0.06268004 -0.08015446 -0.093638934 -0.11118567 -0.0887153 -0.08667982 -0.060261033
-0.069344565 -0.07303953 -0.12854119 0.2394355 -0.2148769 -0.11471017 -0.17906967 0.119700395
0.14170243 -0.117521316 0.09871414 -0.032557163 0.13125779 0.07813029 0.07377823 -0.06850637
-0.051949024 0.0047806925 -0.09762967 -0.09801662 0.013019299 0.053536613 0.014895868 -0.025872154
0.041253306 0.032411736 -0.033503827 0.078264505 0.14244492 0.02540517 0.016024668 -0.031060131
0.13872615 -0.17520425 -0.060798664 -0.098785214 -0.21509613 -0.16206406 -0.14408854 -0.046398282
-0.0057572443 0.0014791635 0.10856083 0.015998188 0.117212705 0.08283991 -0.20235404 0.09968729
-0.20717008 0.1638132 0.14965062 0.13592014 -0.008588781 0.03733743 0.019900596 -0.21259151
-0.11177416 0.026873143 0.09878014 -0.008442057 0.015676156 -0.14718571 0.079763435 0.105856195
-0.29365003 -0.21995868 0.08323744 -0.059201505 -0.12949201 -0.17822927 -0.02377166 -0.25519055
-0.07665556 -0.007429792 0.06202118 0.047493793 0.025912102 0.039713677 0.056701217 0.07095247
-0.050035715 0.116355255 0.055765264 -0.061744872 -0.06726283 0.08051805 0.042611558 0.034868523

block_2.2.bias f4 [32]
00000000: 9bc5 023e 1d3d fabd 543a c23d 22e3 813d
00000010: bb84 58bd 3e85 723d f10e bd3c 20c6 ab3c
00000020: 4df8 203d b776 e1bd 9294 8bbd 186e 07bd
00000030: 3753 ac3b 6829 b93d ab22 c03d a545 1d3d
00000040: 371e 453d a259 3e3d 2c3a 483d 1fb2 6abc
00000050: dcc1 57bb e409 f73d c5a9 c3bd 13c2 c73d
00000060: 29b2 2f3d f819 82bd 2bc7 95bc c44e 82bd
00000070: a24e d3bd 7555 8bbd 74ce 6f3c 59a3 4dbd
0.12770693 -0.12218688 0.094837815 0.0634215 -0.052860957 0.0592091 0.023078414 0.020968497
0.039299298 -0.11008971 -0.06815447 -0.033063978 0.0052589434 0.09041101 0.093816124 0.038396496
0.04812452 0.0464722 0.048883602 -0.014324694 -0.0032921946 0.12062433 -0.09553865 0.097538136
0.042894516 -0.063526094 -0.018283447 -0.063626796 -0.103177324 -0.06803409 0.014636625 -0.05020461

classifier.1.weight f4 [10, 1568]
00000000: 0fd8 613d ae30 163e 3b36 31bc 970f d63d
00000010: d5ce 213d bbdf 263d 5cff 43bd ddc8 813b
00000020: 67aa 05bd 4927 85bd 6b80 9b3d b9db 643d
00000030: e81f 17be 9cfb 67bb cdd2 393c cc93 33bd
00000040: c543 b33d 9cc2 cd3d b6f4 f43d f4e0 a0bc
00000050: eb3e 3ebe 6178 09be 7f7c 1c3e 05a6 19be
00000060: 3dcc 91bd 280e f63d f701 17be 5213 5fbe
00000070: 30c7 4fbd cd6a 1e3e 052e a9bc 9bea 7bbc
00000080: a701 aebb 514a 6cbe 0331 55be c26f 6bbe
00000090: 650c 78be b2f2 1dbe 41ab ffbd b6f7 2b3d
000000a0: dc8e b3bc 3f0c 9fbc 425f 54bd 330c 003d
000000b0: 9e97 193d 949e 92bc 2fa1 a93d 6375 043e
000000c0: b8ab 333d 4871 0a3c 4989 0fbd cfd6 f03c
000000d0: 7889 a73d 7e0f c13d 281d 56bd 7908 a2bc
000000e0: 42ee 04bc 224e c8bd b88e c3bd 3564 42be
000000f0: eca8 3b3e 5a2a 4bbd 10f4 653c e01c 0abb
00000100: 42ff 223d a760 d2bc 26b1 b6bc aff5 fb3d
00000110: e15d e43d ea3a a6bc 4bba 743d d457 45bd
00000120: ce3c 23be 102a c7be d76d 38bd 9769 d63c
00000130: 97f3 753d ff36 93bd b465 09bd 7774 133e
00000140: e3a5 21be 1942 e2bd 12cf 3dbd 8d40 a3bd
00000150: 5628 273d 4f11 b9bd a35c c8bc 7296 b3bc
00000160: d764 a43d f164 ac3d 2b5d a83d e8ff b5bd
00000170: ca32 a43c e6c9 77bd 2b31 c73b c03b f23d
00000180: c796 93bd ac7b eb3d 867f c43d 4b1b c93c
00000190: 50ed fe3d eb28 d63c 8975 5b3d 6b5a 893d
000001a0: 7b22 80bd ef8a 893d e28d 3c3c cf22 df3d
000001b0: 3de0 84bd 4dd6 033d 64ad 24be b442 37bc
000001c0: aef5 c3bd 06e5 413e 8dae 5e3e 6969 b6bc
000001d0: 0adf 68bd 50fe 89bb cdd7 ddbd 06b2 4fbd
000001e0: 6a0c a9bd 603a 243e 0b6b 023e a1fe 233d
000001f0: 208c 32bd 58ae 54bd ce46 6cbe 189d 86be
00000200: 8c16 d03d d2c7 513e 2d7e bc3d 61f4 843d
00000210: 1a7d d2bd d912 a0bd 3e2c c6be 9fcd 64bd
00000220: 302f 10bd 519e a23d 35d5 5d3d b646 f63d
00000230: 2fb3 4d3d e749 14bd 5111 bbbe 5c97 38bc
00000240: 7d31 aa3d 4a8b 64bd f485 543d a2ff 143d
00000250: 82d8 0c3e 0d1d d93d 392c 443e 8949 f5bd
00000260: e345 b0bd f989 df3c 4e73 b0bc 3019 89bd
00000270: 0d6f e33d beb8 88bd e1c4 073c c954 f4bb
00000280: 96c4 79bd 1985 ca3c a6af 10be 2342 96bd
00000290: 74da c23c 283f 25be bf9b 50be 632f 063d
000002a0: 5f0f e03d 3fb9 ee3b ae9e af3c 1125 54bd
000002b0: e135 a6be 6838 b3bc de63 8fbc 0c18 debb
000002c0: 3b0e 013d dd2c 493c 4e62 6fbd 1b35 8e3d
000002d0: 52fa b13c 0422 0dbd 9462 053d d39d 97bd
000002e0: cda1 08bd 691a 573d ef74 293e b759 183e
000002f0: 92ed 273e 0055 fdba 4b70 d0bd 627b 2b3d
00000300: 7b80 13be a24d cd3c 3702 913d 0cb1 383d
00000310: 4aba bbbd 8f01 e03c 8b19 0d3c 7fba 65bd
00000320: eacd 533c 99b3 fdbd 005a fb3d ef6a 18bd
00000330: f2ff cdbb 4d52 5ebe fa35 e4bd 2b0e 02be
00000340: c767 65bc 9521 223e 2d6d 00be 36d2 aabd
00000350: 5b01 923c 723b 0c3d f208 ea3c 7385 6e3d
00000360: ce6e e63b 5373 b2bd 0232 85bd fa1c e13c
00000370: f66f 563d 8271 5a3d c618 aabb 768e 85bd
00000380: fed4 9b3b 2dd7 14bc d1d9 8a3d bd13 5f3d
00000390: c947 9e3d 654e d03b 4f46 c53c b78f 5fbd
000003a0: c72b 23be 7605 f53c 0568 3f3d 25c7 343d
000003b0: b655 90bd 9d7b 4c3c 0a91 563d 90e0 0a3c
000003c0: 04bd 953b ff9e b7bd d8e6 78bd 385a 57bd
000003d0: f27f 86be bc91 1abd 007e efbd ca46 84bb
000003e0: 7e41 fa3d f7b4 f63d 57a9 63bd 2f60 953d
000003f0: 0ab5 213c 662d 483d 943a 8b3c b9f3 413d
0.05513769 0.14667007 -0.010816152 0.10452192 0.03950389 0.04074071 -0.04785095 0.0039607123
-0.03263321 -0.06501634 0.07592853 0.055873606 -0.14758265 -0.0035397774 0.011341763 -0.043842122
0.087531604 0.100468844 0.119607374 -0.019638516 -0.18578689 -0.13424827 0.15281866 -0.15004738
-0.071190335 0.12014419 -0.14746843 -0.21784714 -0.05072707 0.15470429 -0.020651827 -0.0153757585
-0.0053102556 -0.23075224 -0.20819478 -0.22991851 -0.24223478 -0.15424612 -0.12483836 0.041984282
-0.021918707 -0.01941502 -0.051848657 0.031261634 0.03749811 -0.017897882 0.082826965 0.12935404
0.043864936 0.00844986 -0.035043035 0.029399304 0.08180517 0.09426783 -0.0522739 -0.01977943
-0.008113446 -0.09780528 -0.09548706 -0.18983538 0.18326157 -0.049600936 0.01403524 -0.002107434
0.039794214 -0.025680853 -0.022301268 0.1230272 0.111507185 -0.020291764 0.059747975 -0.048179463
-0.15941164 -0.3889928 -0.045026626 0.026173396 0.06004676 -0.07188224 -0.033544257 0.14399897
-0.15785937 -0.110477634 -0.046340056 -0.079712965 0.04080995 -0.090365045 -0.024458235 -0.021922324
0.08027046 0.084176905 0.082208954 -0.08886701 0.02004375 -0.06049528 0.0060788593 0.11827803
-0.07206493 0.11498198 0.09594636 0.024549147 0.124476075 0.026142558 0.053578887 0.06706699
-0.06256577 0.067159526 0.011508437 0.10895311 -0.064880826 0.032186795 -0.16081768 -0.011185337
-0.09568344 0.18935022 0.21746273 -0.02226706 -0.05685333 -0.0042112246 -0.10832176 -0.050706886
-0.08254321 0.16037893 0.12736146 0.040037755 -0.043590665 -0.05192408 -0.23073885 -0.26291728
0.101605505 0.20486382 0.092037536 0.06491924 -0.102777675 -0.07816095 -0.3870563 -0.055860158
-0.03520125 0.07940353 0.05415841 0.12025206 0.05021971 -0.03620329 -0.3653665 -0.011266556
0.083102204 -0.0557969 0.05188556 0.036376603 0.13754466 0.10601244 0.19157495 -0.11976916
-0.0860708 0.02728747 -0.021539357 -0.06694257 0.11105166 -0.06675862 0.008286686 -0.0074563962
-0.060978495 0.024721669 -0.14129505 -0.07336833 0.023785807 -0.16137373 -0.20371912 0.032760035
0.10940432 0.0072852666 0.021437969 -0.05179316 -0.3246298 -0.021877483 -0.017503675 -0.006777769
0.03150771 0.012278763 -0.05844336 0.06943723 0.021725807 -0.034456268 0.032564715 -0.074031495
-0.03335743 0.05251542 0.16548513 0.14877973 0.1639922 -0.00193277 -0.10177668 0.041865714
-0.1440448 0.025061432 0.070805006 0.04509072 -0.09166391 0.027344493 0.008612047 -0.05608606
0.012927512 -0.12387771 0.122730255 -0.037211355 -0.0062866146 -0.21711083 -0.11143108 -0.12700717
-0.014001793 0.15833123 -0.12541647 -0.08340876 0.017822912 0.03423638 0.028568719 0.058232736
0.007032252 -0.087134026 -0.06503679 0.027479637 0.052352868 0.053330906 -0.0051909415 -0.06521313
0.0047556153 -0.009084505 0.067798264 0.054462183 0.07728536 0.0063570016 0.024081377 -0.054580417
-0.15934668 0.02990983 0.04673006 0.04413523 -0.07047598 0.012480644 0.052384414 0.008476391
0.0045696516 -0.08965873 -0.060767025 -0.052576274 -0.2626949 -0.03773664 -0.116939545 -0.004036759
0.12219523 0.12046235 -0.055581417 0.07293736 0.009869823 0.04887142 0.016995706 0.047351573

classifier.1.bias f4 [10]
00000000: 3a1c 293d 3100 54bd b010 b0bc 9940 503d
00000010: ce41 f4bb fbf6 04be c737 b53c 64f7 c23d
00000020: a3c8 aebc 57a2 ddbc
0.041286685 -0.051757995 -0.021492332 0.050842855 -0.0074541336 -0.1298484 0.022121323 0.09519842
-0.021335905 -0.027054949
