model/best_model_weights.pth (torch, 179573 bytes, 10 tensors)

block_1.0.weight f4 [32, 1, 3, 3]
0.15010801 0.1640906 -0.22245431 0.2080987 -0.11108847 -0.01921412 -0.2986921 0.13927177
0.19867942 -0.31746078 0.2662775 -0.05107394 0.16684194 0.089508876 0.12448022 -0.16584441
0.20239389 0.02304986 -0.014540842 0.14153054 -0.1526585 -0.038281843 -0.083214276 0.2748841
-0.29226834 -0.111237474 -0.052836865 -0.2282987 -0.028735148 -0.40597445 0.3371479 -0.36475912
0.23996855 0.0468408 -0.18793322 0.16572076 0.026032303 0.28550008 -0.036707006 -0.23094423
0.15894443 -0.1382527 0.12477461 0.3522938 0.1758376 -0.15684946 0.12205214 0.05140857
0.109398134 -0.35634524 -0.3919711 -0.067466214 -0.27574462 0.2626957 0.08300682 0.21435238
0.064982966 0.005821311 0.31134474 -0.36271387 -0.044229914 -0.3194489 0.035441466 -0.119923785
0.056627683 -0.23416819 0.32080165 -0.26866913 -0.41073185 -0.07663698 0.428543 0.07404552
0.3918716 -0.335137 -0.37597 -0.23725078 -0.28124163 0.061357945 0.13680466 0.2593338
-0.19972093 -0.22634351 0.320153 0.0054689413 0.10466759 -0.17367396 0.3739214 -0.38219997
-0.28797483 0.28073558 0.07166844 -0.18753299 0.27868083 0.42918894 -0.39400753 -0.12849383
0.42460337 -0.30368418 -0.19082488 -0.17316145 -0.09095759 0.19496195 0.048255134 -0.18348402
0.11479246 -0.1252283 -0.17973454 -0.11000867 -0.34843916 -0.11183993 0.5909535 0.135332
0.1732584 -0.2945453 -0.17752233 -0.07959841 0.08564121 -0.22148935 -0.060628783 -0.13867858
0.044752844 -0.036344163 0.030633079 -0.17430064 -0.09746291 -0.120783985 -0.1777327 -0.20016384
0.36444154 -0.29352474 0.32007357 0.118832454 -0.3976979 0.3396892 -0.01005237 -0.04967692
-0.27391022 -0.32676488 0.11697243 -0.039285783 0.12713559 -0.23685831 0.29819927 -0.23618089
-0.055876702 0.22589868 0.27653274 0.28248423 0.40630096 -0.4049976 0.088596605 -0.11112287
-0.13832638 -0.30547026 0.28579894 -0.3851287 0.049723707 0.13281979 0.026074393 -0.29704607
0.3093314 0.057079986 0.09355288 -0.30878747 0.19125117 -0.102285154 -0.19752175 0.34561488
0.08340373 -0.21824425 -0.17396328 -0.0047371234 0.26521122 -0.08847994 -0.13825117 0.03455421
-0.29632914 0.20506215 0.37027055 -0.38661864 0.08389619 0.26140654 0.058762066 -0.2168916
0.23936452 0.15689398 0.07039226 -0.07232677 -0.1731946 0.034631666 -0.11880735 -0.27378875
0.28576756 0.32571384 -0.19696678 0.016933518 0.030843949 -0.15083066 0.08591153 0.16334173
-0.2943626 -0.17285363 0.2800408 0.12130357 0.012674109 -0.25217107 -0.18658037 -0.32809636
-0.029634167 0.18715213 0.18724976 0.23347253 -0.27270725 -0.26631832 -0.043391604 0.37334135
0.13410246 -0.10651538 0.11241332 -0.09706551 -0.2909529 0.22236878 -0.13604483 -0.1640956
-0.33724988 0.19590138 0.19164303 0.05480817 -0.24926557 -0.38984334 -0.34963828 0.22299106
0.14812016 0.22550522 0.34712628 0.14065835 0.116030484 -0.0074737333 -0.38824087 -0.2200981
0.22943722 -0.29798457 0.03791915 -0.16236335 -0.011670068 -0.13198118 -0.19605228 0.18648894
0.01186968 0.27814654 -0.10627103 -0.12998204 -0.09899782 -0.19455083 -0.11699441 -0.38193095
00000000: eab5 193e 5e07 283e 10cb 63be d317 553e
00000010: 5a82 e3bd ee66 9dbc 2cee 98be 429d 0e3e
00000020: 9e72 4b3e 388a a2be 8655 883e e832 51bd
00000030: 9dd8 2a3e 6e50 b73d 7cef fe3d 1ed3 29be
00000040: 5840 4f3e 0fd3 bc3c b63c 6ebc 62ed 103e
00000050: 8352 1cbe 6ccd 1cbd 3f6c aabd 9cbd 8c3e
00000060: 32a4 95be 79d0 e3bd 786b 58bd 22c7 69be
00000070: f965 ebbc e2db cfbe a69e ac3e b5c1 babe
00000080: 51ba 753e 24dc 3f3d 9171 40be b4b2 293e
00000090: b241 d53c 112d 923e 165a 16bd a57c 6cbe
000000a0: 54c2 223e 1e92 0dbe d589 ff3d da5f b43e
000000b0: c60e 343e 259d 20be 79f6 f93d cb91 523d
000000c0: 210c e03d e272 b6be 70b0 c8be ba2b 8abd
000000d0: 662e 8dbe 0d80 863e 7bff a93d 317f 5b3e
000000e0: ca15 853d b2c0 be3b 9468 9f3e a2b5 b9be
000000f0: 6d2a 35bd ce8e a3be 122b 113d 9a9a f5bd
00000100: 6ef2 673d c9c9 6fbe 1d40 a43e 008f 89be
00000110: 724b d2be d9f3 9cbd fd69 db3e 2da5 973d
00000120: 65a3 c83e 1497 abbe 247f c0be def1 72be
00000130: e7fe 8fbe 7852 7b3d 8516 0c3e 66c7 843e
00000140: a583 4cbe 98c6 67be 18eb a33e ce34 b33b
00000150: f65b d63d 96d7 31be a072 bf3e b7af c3be
00000160: 7071 93be 93bc 8f3e e7c6 923d a608 40be
00000170: 41af 8e3e a7be db3e 5bbb c9be e393 03be
00000180: 9d65 d93e 7e7c 9bbe 9967 43be 3c51 31be
00000190: f947 babd 1ba4 473e 2da7 453d 3ce3 3bbe
000001a0: 4f18 eb3d d93b 00be 550c 38be 3a4c e1bd
000001b0: 9e66 b2be 550c e5bd bb48 173f 7994 0a3e
000001c0: a66a 313e a4ce 96be 6ac8 35be 7e04 a3bd
000001d0: a964 af3d 1bce 62be e355 78bd c201 0ebe
000001e0: c24e 373d 9edd 14bd 39f2 fa3c de7b 32be
000001f0: a29a c7bd 985d f7bd 90ff 35be c0f7 4cbe
00000200: 1598 ba3e e048 96be afe0 a33e 6e5e f33d
00000210: 0f9f cbbe beeb ad3e b2b2 24bc 077a 4bbd
00000220: f63d 8cbe ba4d a7be 3e8f ef3d 21ea 20bd
00000230: d52f 023e fc8a 72be 93ad 983e 67d9 71be
00000240: f8de 64bd fc51 673e b395 8d3e c6a1 903e
00000250: ae06 d03e d85b cfbe 2372 b53d 6394 e3bd
00000260: 6ea5 0dbe 9966 9cbe 3d54 923e 972f c5be
00000270: 16ab 4b3d e901 083e f799 d53c 6c16 98be
00000280: af60 9e3e b4cc 693d a798 bf3d 6419 9ebe
00000290: 59d7 433e e17a d1bd 2443 4abe 6ff4 b03e
000002a0: 93cf aa3d 6c7b 5fbe 6e23 32be df39 9bbb
000002b0: c4c9 873e f934 b5bd b791 0dbe b788 0d3d
000002c0: 74b8 97be d0fb 513e 1a94 bd3e e1f2 c5be
000002d0: c4d1 ab3d 14d7 853e 7eb0 703d d518 5ebe
000002e0: f91b 753e d1a8 203e d129 903d 0f20 94bd
000002f0: ed59 31be efd9 0d3d 4551 f3bd 0a2e 8cbe
00000300: 2050 923e f7c3 a63e a9b1 49be 29b8 8a3c
00000310: 73ac fc3c 5a73 1abe 62f2 af3d 0e43 273e
00000320: b2b6 96be 8b00 31be 8261 8f3e 026e f83d
00000330: 11a7 4f3c 911c 81be ed0e 3fbe 3ffc a7be
00000340: 5ac3 f2bc cfa4 3f3e 67be 3f3e 6c13 6f3e
00000350: 49a0 8bbe e05a 88be 65bb 31bd 9926 bf3e
00000360: 2852 093e bc24 dabd f438 e63d 48ca c6bd
00000370: c7f7 94be a4b4 633e 564f 0bbe ad08 28be
00000380: 04ac acbe 5f9a 483e 123e 443e 887e 603d
00000390: 793f 7fbe 8c99 c7be ca03 b3be c557 643e
000003a0: d0ac 173e d7ea 663e 89ba b13e be08 103e
000003b0: 64a1 ed3d 38e6 f4bb 82c7 c6be 6561 61be
000003c0: 97f1 6a3e 6f91 98be 1c51 1b3d 9442 26be
000003d0: d033 3fbc 1326 07be eec1 48be f5f6 3e3e
000003e0: 0c79 423c 3969 8e3e a0a4 d9bd 031a 05be
000003f0: 5ebf cabd 5538 47be c49a efbd 748c c3be

block_1.0.bias f4 [32]
0.04861614 -0.23936996 -0.28238034 -0.2194147 -0.44069168 -0.4883328 0.074081495 -0.13456258
-0.3907514 0.0784603 0.0746245 -0.35288507 -0.111395866 -0.23182593 0.06650463 -0.37162617
-0.28889364 0.17512093 -0.22193122 0.05035592 -0.26807532 0.07114514 0.19042397 0.03136179
-0.47394806 -0.051047854 0.060929954 -0.08611508 0.1349346 0.20150876 0.012831376 -0.13248025
00000000: b821 473d 661d 75be 2894 90be 3fae 60be
00000010: 57a2 e1be c206 fabe 0ab8 973d c6ca 09be
00000020: 9110 c8be cbaf a03d bbd4 983d 5aad b4be
00000030: 8423 e4bd c763 6dbe 9433 883d c945 bebe
00000040: dee9 93be e752 333e f041 63be 0242 4e3d
00000050: 2b41 89be 8bb4 913d 80fe 423e 3875 003d
00000060: 52a9 f2be 8e17 51bd b091 793d 1a5d b0bd
00000070: 4c2c 0a3e 5058 4e3e b13a 523c e7a8 07be

block_1.2.weight f4 [32, 32, 3, 3]
0.026039185 -0.012302826 0.03496951 0.051595736 -0.03776281 0.055138584 -0.065254085 0.0440048
-0.015634203 0.032895178 0.12646489 0.07187762 0.019013371 -0.08876607 -0.015879884 -0.11900171
-0.056136694 -0.104202956 -0.027032994 -0.09389871 -0.11353197 -0.0905669 -0.026837092 -0.01783541
-0.09561634 0.053451672 0.09012229 -0.14338516 -0.12655954 0.11420256 -0.03360938 -0.087702565
0.15059596 -0.02575491 -0.021371495 -0.08311711 -0.0025561417 -0.06907527 -0.20323414 -0.015700327
-0.056396022 -0.16763481 -0.10109804 0.007960505 0.040946815 -0.12872915 -0.12126647 -0.05164683
-0.17008099 0.02142327 0.07754135 0.10430311 0.17971118 0.017113931 -0.18653949 -0.14660215
-0.075680465 0.019429853 0.24268937 0.064044766 0.16897358 0.012280605 -0.036897488 -0.08357355
-0.014603081 0.11335377 -0.09157341 -0.21245179 -0.047428083 -0.04508098 0.1747171 0.22146839
-0.010192402 0.023017129 -0.06353531 -0.13271138 -0.1831616 -0.03349597 -0.07073511 -0.12665854
0.018543404 0.08020723 -0.0021899014 0.01697277 0.01702425 -0.03790947 0.06931377 -0.22839849
0.062315013 0.019388976 -0.12123503 -0.09393889 0.095747136 0.26466343 0.1357692 0.041387804
0.24172387 0.009497305 -0.067194484 -0.004863344 -0.08404114 -0.08864365 -0.016602164 -0.008940108
0.039489117 0.0013202153 0.041481588 -0.022637866 -0.02020188 0.035771906 0.049243927 0.06654186
0.009889976 -0.0567346 0.03425903 -0.002878299 -0.101437636 -0.106389344 -0.09652527 -0.049507316
-0.1135651 -0.05400377 -0.050265223 -0.017786564 0.08263404 -0.06022127 -0.031406477 0.21542148
0.05048055 0.012390515 0.0279013 -0.14724742 -0.05808087 0.0065113343 0.031836152 -0.116425395
0.03551784 0.016783934 -0.09875557 -0.1514439 0.0962094 -0.067343734 0.012160061 0.00011737166
-0.015915614 -0.122228816 0.027760925 0.10006355 0.2076509 0.14330266 0.12072754 -0.07649813
-0.122846015 0.044404924 0.015021088 0.050752096 -0.07244216 -0.14987577 -0.100285105 -0.15996018
0.028113818 -0.0647822 0.07447867 -0.13328934 -0.15356793 0.041246377 -0.08000242 0.0023167247
0.061799306 0.059044436 0.06887222 -0.067081854 -0.054403316 -0.063121244 0.039243545 0.08372969
0.08347711 0.027661838 -0.025488118 0.016039394 0.050638337 0.0058903964 0.05884187 0.019172179
0.13007629 -0.046994552 -0.17138775 -0.18415438 -0.1767792 -0.0077701053 0.10775067 0.009882265
-0.0048818095 -0.08547053 -0.056241866 0.029151447 -0.0058044624 -0.19555621 0.122356765 -0.004261517
-0.04928959 0.004727554 0.05773972 0.056623258 0.026028194 -0.12895295 -0.108276024 -0.05005189
0.051312678 0.13304022 -0.011608115 -0.07065527 0.024351077 0.10856738 0.15144362 -0.057303775
-0.07066645 -0.11974284 -0.23744372 -0.0043930793 -0.13443606 -0.007862679 0.009699822 0.054041047
0.13136192 -0.10195647 -0.13160609 -0.10351123 -0.06315647 -0.015126077 -0.008181895 -0.005927105
0.06595536 0.18566966 -0.09903053 -0.21026097 -0.075312436 -0.03586335 0.065502025 0.13129681
0.115449294 0.060117163 0.022503335 -0.14354795 -0.07173766 -0.063519105 -0.009861254 0.07817593
-0.08187202 -0.14693387 -0.09726562 -0.12019056 -0.058282282 -0.025428541 -0.042360988 -0.1773331
00000000: 2150 d53c cb91 49bc 303c 0f3d 0d56 533d
00000010: 2dad 1abd ffd8 613d efa3 85bd 613e 343d
00000020: 4d13 80bc 18bd 063d 0380 013e 9334 933d
00000030: eec1 9b3c fcca b5bd 8816 82bc 2bb7 f3bd
00000040: 97ef 65bd 5c68 d5bd 4c74 ddbc f84d c0bd
00000050: 7383 e8bd 247b b9bd 76d9 dbbc 911b 92bc
00000060: 80d2 c3bd 24f0 5a3d 0992 b83d 8fd3 12be
00000070: d398 01be 08e3 e93d fda9 09bd 679d b3bd
00000080: d435 1a3e f6fb d2bc 4613 afbc 4e39 aabd
00000090: f184 27bb 5677 8dbd 9c1c 50be f99d 80bc
000000a0: 84ff 66bd 76a8 2bbe 7d0c cfbd c76c 023c
000000b0: d9b7 273d 93d1 03be 8e5a f8bd a08b 53bd
000000c0: b629 2ebe db7f af3c 00ce 9e3d de9c d53d
000000d0: 3506 383e 8432 8c3c 3504 3fbe e01e 16be
000000e0: 5cfe 9abd 5b2b 9f3c 9083 783e e729 833d
000000f0: 6907 2d3e 9734 493c d221 17bd 9c28 abbd
00000100: c341 6fbc 0526 e83d d78a bbbd f68c 59be
00000110: f343 42bd d5a6 38bd 0ae9 323e 9cc8 623e
00000120: 08fe 26bc 6b8e bc3c cd1e 82bd 7ee5 07be
00000130: b78e 3bbe 1233 09bd 92dd 90bd c7b2 01be
00000140: 56e8 973c b043 a43d 7384 0fbb 7b0a 8b3c
00000150: 7176 8b3c f646 1bbd 61f4 8d3d 4be1 69be
00000160: 073e 7f3d a1d5 9e3c 124a f8bd 0863 c0bd
00000170: 1317 c43d f781 873e 1507 0b3e 4286 293d
00000180: 7686 773e 969a 1b3c 439d 89bd b05c 9fbb
00000190: c31d acbd cd8a b5bd 4301 88bc 8879 12bc
000001a0: 57bf 213d 130b ad3a 99e8 293d 0c73 b9bc
000001b0: 6a7e a5bc 9085 123d 00b4 493d 1947 883d
000001c0: 9109 223c 8a62 68bd 3253 0c3d d8a1 3cbb
000001d0: 89be cfbd a8e2 d9bd 0aaf c5bd 2fc8 4abd
000001e0: d294 e8bd 0f33 5dbd e8e2 4dbd 21b5 91bc
000001f0: 093c a93d 94aa 76bd 14a4 00bd 7397 5c3e
00000200: b1c4 4e3d 9601 4b3c 4491 e43c 07c8 16be
00000210: 35e6 6dbd 085d d53b a066 023d 7070 eebd
00000220: 287b 113d 767e 893c 5c40 cabd 1c14 1bbe
00000230: 6f09 c53d 83eb 89bd fe3a 473c 6e25 f638
00000240: 7661 82bc 1a53 fabd e16a e33c 1eee cc3d
00000250: 70a2 543e efbd 123e 0040 f73d 0dab 9cbd
00000260: b196 fbbd f0e1 353d 021b 763c 6ee1 4f3d
00000270: 8e5c 94bd 0979 19be 4762 cdbd 9acc 23be
00000280: f34e e63c 88ac 84bd 4688 983d 007d 08be
00000290: e940 1dbe f6f1 283d 4fd8 a3bd 31d4 173b
000002a0: 4521 7d3d 94d8 713d e10c 8d3d 3662 89bd
000002b0: 03d6 5ebd b645 81bd d7bd 203d 797a ab3d
000002c0: 0cf6 aa3d 149b e23c 75cc d0bc 0c65 833c
000002d0: 256a 4f3d 3a04 c13b 2c04 713d f90e 9d3c
000002e0: b832 053e 5c7d 40bd 4580 2fbe f792 3cbe
000002f0: 9b05 35be 5e9c febb 62ac dc3d 39e9 213c
00000300: 96f7 9fbb 2c0b afbd df5d 66bd 04cf ee3c
00000310: 5c33 bebb e33f 48be 2f96 fa3d 32a4 8bbb
00000320: e2e3 49bd 99e9 9a3b 7c80 6c3d caed 673d
00000330: 1439 d53c 3e0c 04be d2bf ddbd 3603 4dbd
00000340: 3e2d 523d b23b 083e f72f 3ebc b6b3 90bd
00000350: e97b c73c 9358 de3d 0914 1b3e 5db7 6abd
00000360: 92b9 90bd bc3b f5bd 7224 73be d2f3 8fbb
00000370: 9ba9 09be 77d2 00bc 01ec 1e3c 255a 5d3d
00000380: bd83 063e 8ece d0bd bfc3 06be b2fd d3bd
00000390: 2e58 81bd 5ed3 77bc 5b0d 06bc 2938 c2bb
000003a0: 9b13 873d 3020 3e3e 85d0 cabd a74e 57be
000003b0: 683d 9abd 73e5 12bd ed25 863d ac72 063e
000003c0: ae70 ec3d 6a3d 763d ea58 b83c 3cfe 12be
000003d0: 32eb 92bd 4e16 82bd 1991 21bc b41a a03d
000003e0: 85ac a7bd d575 16be 3333 c7bd 7826 f6bd
000003f0: 67b9 6ebd 844f d0bc b782 2dbd cf96 35be

block_1.2.bias f4 [32]
0.075233124 0.091118075 0.046115384 0.08502462 0.18563452 -0.02302769 -0.06209836 0.0058241966
-0.10714477 -0.12647052 0.18086831 0.02731731 0.070129715 -0.01288122 0.11203155 0.052025344
-0.16092747 0.033392612 0.13365649 0.019592289 0.101833545 -0.13270532 -0.004267255 0.10089152
0.005098457 0.011195692 0.21395405 -0.004519287 0.021886919 -0.034553435 0.09385284 -0.01338358
00000000: d313 9a3d 1d9c ba3d 7ce3 3c3d 6321 ae3d
00000010: fa16 3e3e 91a4 bcbc da5a 7ebd e7d8 be3b
00000020: b86e dbbd 7d81 01be 8b35 393e 8dc8 df3c
00000030: 2ba0 8f3d c10b 53bc cc70 e53d 8718 553d
00000040: 2cca 24be b1c6 083d 3fdd 083e 0280 a03c
00000050: 1b8e d03d e7e3 07be 54d4 8bbb 37a0 ce3d
00000060: f510 a73b 236e 373c c516 5b3e 8716 94bb
00000070: 324c b33c e787 0dbd eb35 c03d ce46 5bbc

block_2.0.weight f4 [32, 32, 3, 3]
0.09926253 0.059239518 -0.022217657 0.15128176 -0.028947793 -0.16081 0.3097677 0.1418604
-0.06842618 0.1713788 -0.012685723 -0.026198583 0.067498386 -0.13588881 -0.16028018 0.101696454
-0.04820707 0.024789404 -0.046402212 -0.065062195 -0.044340648 0.08770814 -0.16824369 0.1964152
0.103169106 -0.069484375 0.22472367 -0.038565785 -0.39633533 0.072357796 -0.23561738 -0.4102325
0.083201535 -0.012456443 -0.31276184 0.07145436 0.1541103 0.004846423 0.0027687037 0.21670072
0.0019389302 0.06475795 0.12766057 0.1094643 0.20277637 -0.06317162 0.01758829 0.05887375
-0.03619933 0.046514157 -0.049057893 0.0013461785 -0.04091034 0.0259648 0.09804621 0.07814538
0.11897058 0.09580297 -0.070462614 -0.070831716 0.14424573 0.038104597 0.11620494 0.13111736
0.10167757 0.06453325 0.056101575 0.043033592 -0.033274222 -0.022395086 0.046968248 -0.068678945
0.025415203 0.10338182 0.08145614 0.14767739 0.06682881 -0.0015125361 0.09836078 0.009007804
-0.053136457 -0.05247667 0.08594698 0.03335734 0.07546907 0.035115898 -0.010750231 0.05120651
0.015069986 -0.11682378 -0.008430172 -0.06961359 0.11999075 -0.08469237 -0.023395168 0.2562317
-0.08742539 0.088181555 0.2592262 -0.15840052 0.012717254 0.04906315 0.14464551 0.12971738
-0.15999308 0.11711332 0.0721677 -0.11515955 0.09515187 -0.009819974 -0.23436254 0.19185916
-0.0014807878 0.022955457 -0.043901335 -0.0924509 0.05292824 -0.077511534 -0.25774223 -0.029143687
-0.12792113 -0.23581812 -0.034704488 0.014938689 -0.13604125 0.07699654 -0.125945 0.05580925
0.18094626 -0.043042134 0.117055535 0.093118526 0.04518723 0.123174794 0.15873973 0.10751108
0.024826419 0.079735644 0.08403508 -0.05286489 0.014519713 0.22530279 -0.040745955 -0.012904312
-0.069653355 -0.040783137 -0.059931774 0.07716428 0.09029084 -0.081465244 -0.012226237 0.008383118
-0.11788627 0.0147286765 -0.06050208 -0.044551313 0.17109887 -0.18307932 -0.088249125 0.06713869
-0.12471246 -0.08468239 0.1377775 -0.1699344 -0.011941288 -0.013886856 -0.32595807 0.08054179
-0.018402634 -0.044789635 0.19862776 0.09421868 -0.14130832 0.07143346 -0.109669045 -0.17868571
-0.055499956 -0.008939788 -0.097718306 -0.13940501 0.019411312 -0.014554108 -0.024946492 0.1844242
0.11337489 -0.10783205 -0.005286764 0.12843983 0.018552946 -0.009036405 0.093719706 0.026313577
0.02470618 0.054074094 -0.07013458 0.07487513 -0.025193281 0.044232775 -0.020299116 0.11626029
0.047794074 0.05971657 0.008553284 0.016440574 0.18013224 0.019637011 -0.07580825 0.008679096
-0.043702006 -0.034526553 0.12041756 -0.009667023 0.20683587 0.075388364 -0.011267783 0.17265785
-0.22950481 -0.18246931 0.085704125 -0.4647715 -0.17042239 0.013622302 -0.14055166 -0.0009986772
0.018921502 0.059842654 -0.20142743 -0.18211453 0.15171343 -0.43704233 -0.25868672 0.009451915
-0.29388824 -0.02710784 0.07322528 -0.03299854 0.127455 -0.16739506 0.074479654 0.15587656
-0.2042662 0.14265124 0.051482446 -0.04679803 -0.03761092 0.048963312 0.093774386 0.038125973
-0.027938329 0.031691127 0.060265604 -0.03245165 0.032640286 -0.417272 0.07427401 -0.23497474
00000000: 274a cb3d 23a5 723d ce01 b6bc 9be9 1a3e
00000010: ec23 edbc 60ab 24be df99 9e3e da43 113e
00000020: 0623 8cbd ed7d 2f3e c7d7 4fbc 699e d6bc
00000030: 983c 8a3d 7026 0bbe 7d20 24be 3b46 d03d
00000040: c774 45bd 2613 cb3c 3f10 3ebd 543f 85bd
00000050: 8a9e 35bd 53a0 b33d 1348 2cbe 1121 493e
00000060: 534a d33d d34d 8ebd f61d 663e 28f7 1dbd
00000070: 77ec cabe 5330 943d af45 71be ff09 d2be
00000080: 9165 aa3d 1c16 4cbc 5222 a0be aa56 923d
00000090: 17cf 1d3e bece 9e3b 2473 353b cbe6 5d3e
000000a0: b423 fe3a d19f 843d 74b9 023e d22e e03d
000000b0: 9ca4 4f3e 1f60 81bd 5115 903c 9a25 713d
000000c0: c045 14bd a185 3e3d eef0 48bd 4172 b03a
000000d0: 9a91 27bd 22b4 d43c 74cc c83d af0a a03d
000000e0: d9a6 f33d 5934 c43d b44e 90bd 3810 91bd
000000f0: 27b5 133e 9113 1c3d dbfc ed3d a143 063e
00000100: 543c d03d 022a 843d c4ca 653d fe43 303d
00000110: 8d4a 08bd e675 b7bc c761 403d 8ca7 8cbd
00000120: 8b33 d03c d9b9 d33d 7ad2 a63d be38 173e
00000130: 8bdd 883d 4a40 c6ba 6071 c93d 7895 133c
00000140: 9da5 59bd c7f1 56bd f804 b03d b5a1 083d
00000150: 878f 9a3d b0d5 0f3d bd21 30bc ebbd 513d
00000160: 1ae8 763c 4e41 efbd b41e 0abc 9291 8ebd
00000170: b6bd f53d 3173 adbd 39a7 bfbc cd30 833e
00000180: 150c b3bd 8898 b43d 4cb9 843e bf33 22be
00000190: 085c 503c 71f6 483d f41d 143e a2d4 043e
000001a0: 3ad5 23be 1cd9 ef3d a9cc 933d c5d8 ebbd
000001b0: fcde c23d f5e3 20bc bcfc 6fbe ba76 443e
000001c0: fe16 c2ba 150d bc3c e3d1 33bd e656 bdbd
000001d0: 48cb 583d 5ebe 9ebd caf6 83be bebe eebc
000001e0: c2fd 02be 4e7a 71be 4b26 0ebd 67c1 743c
000001f0: 664e 0bbe 5db0 9d3d baf7 00be 3d98 643d
00000200: fa49 393e f34c 30bd d0ba ef3d edb4 be3d
00000210: 3f16 393d 1143 fc3d ab8c 223e c52e dc3d
00000220: c660 cb3c 714c a33d 961a ac3d db88 58bd
00000230: 17e4 6d3c c6b5 663e 3be5 26bd 9c6c 53bc
00000240: 6ba6 8ebd 380c 27bd 057b 75bd 4e08 9e3d
00000250: 67ea b83d 40d7 a6bd 8e50 48bc 5859 093c
00000260: 5b6e f1bd 8c50 713c 07d1 77bd 707b 36bd
00000270: 8b34 2f3e 2579 3bbe f5bb b4bd 0280 893d
00000280: 3f69 ffbd f66d adbd 8c15 0d3e 4903 2ebe
00000290: 64a5 43bc b285 63bc fae3 a6be 18f3 a43d
000002a0: 1fc1 96bc 5675 37bd 1365 4b3e b9f5 c03d
000002b0: 21b3 10be b54b 923d 2a9a e0bd 63f9 36be
000002c0: ec53 63bd 3078 12bc 8920 c8bd 30c0 0ebe
000002d0: 7904 9f3c 5a74 6ebc 965c ccbc b3d9 3c3e
000002e0: 1831 e83d 0dd7 dcbd 973c adbb bb85 033e
000002f0: 59fc 973c 6e0d 14bc 1ef0 bf3d 928f d73c
00000300: 9d64 ca3c cc7c 5d3d b8a2 8fbd 2258 993d
00000310: 2462 cebc 6d2d 353d 554a a6bc e019 ee3d
00000320: b8c3 433d 5d99 743d 1323 0c3c 62ae 863c
00000330: 9674 383e ccdd a03c 5b41 9bbd c432 0e3c
00000340: e000 33bd b76b 0dbd 7b9d f63d 6f62 1ebc
00000350: c8cc 533e 3765 9a3d 829c 38bc 38cd 303e
00000360: 4f03 6bbe 3cd9 3abe a585 af3d 88f6 edbe
00000370: 3583 2ebe 1330 5f3c c6ec 0fbe 0ce6 82ba
00000380: 4401 9b3c 921d 753d fe42 4ebe 3b7c 3abe
00000390: c45a 1b3e 03c4 dfbe 9672 84be 34dc 1a3c
000003a0: 8578 96be 4311 debc 23f7 953d 7a29 07bd
000003b0: 9083 023e 9c69 2bbe ca88 983d 1b9e 1f3e
000003c0: 292b 51be 2b13 123e 42df 523d 4baf 3fbd
000003d0: e80d 1abd c18d 483d c90c c03d fb29 1c3d
000003e0: ecde e4bc 8ece 013d 11d9 763d 05ec 04bd
000003f0: d2b1 053d ada4 d5be f91c 983d 389d 70be

block_2.0.bias f4 [32]
0.1598111 0.1433208 0.0073275845 0.17476115 0.12093634 0.051253498 -0.13200794 0.113407
-0.0033428024 -0.05393371 0.12984504 -0.04252232 -0.06347671 0.009733687 0.0594008 0.00864981
0.07961226 -0.05981777 -0.034930307 -0.027642395 0.029702134 -0.0039404817 -0.08010615 0.06352315
0.12350271 0.027791612 -0.14519686 0.13610443 0.16031057 -0.037505515 0.26562917 -0.06296044
00000000: 85a5 233e b0c2 123e 3c1c f03b 96f4 323e
00000010: 79ad f73d 30ef 513d 172d 07be ee41 e83d
00000020: eb12 5bbb 98e9 5cbd 19f6 043e e22b 2ebd
00000030: 1400 82bd 0b7a 1f3c 414e 733d efb7 0d3c
00000040: c10b a33d 7a03 75bd 1513 0fbd 4e72 e2bc
00000050: e451 f33c 281f 81bb b10e a4bd 6d18 823d
00000060: fdee fc3d 3cab e33c 7cae 14be f65e 0b3e
00000070: 7428 243e 629f 19bd 8c00 883e 67f1 80bd

block_2.2.weight f4 [32, 32, 3, 3]
0.199936 0.14287971 -0.014653273 0.019185513 -0.122151874 -0.08685107 -0.07815655 -0.13668798
-0.15995058 -0.02405296 0.076961346 -0.1845035 0.08713365 0.17082603 -0.04790313 0.003493615
0.10146083 -0.0575997 -0.038050927 -0.21185818 -0.17942344 -0.17863049 -0.2322776 -0.038229182
0.008713159 -0.009311309 0.08546252 -0.13117284 -0.02342777 0.037674144 0.023728833 0.224231
0.12408172 -0.047746476 0.13212757 -0.03836118 0.04654332 0.04438582 -0.14965458 -0.18582988
-0.18256855 -0.16078115 -0.12697479 -0.03339052 -0.1196698 0.1918404 -0.030079752 -0.13834625
-0.22113493 -0.3305466 -0.13615425 -0.07539961 -0.09252226 0.1667855 0.05680452 0.07422345
-0.026157087 -0.12686892 0.05895663 -0.1752679 -0.1710145 -0.14513089 -0.17520721 0.07171888
0.15054858 0.04255658 0.024779346 -0.08240572 0.070843056 -0.06561084 -0.16917878 0.024643132
-0.08344921 0.09045234 0.0009187057 -0.055861086 0.012340735 0.04909753 0.020867217 -0.021167127
0.008220081 0.05565865 0.093492426 0.081446216 0.07191 0.055265795 -0.01577256 -0.07756177
-0.13424665 -0.08445303 -0.13314225 -0.051683497 -0.056222577 -0.055043835 -0.022206893 -0.002930777
0.006642882 -0.006159992 -0.13601308 -0.06537182 0.10111282 0.0665901 -0.050495464 0.054215606
0.06555555 0.030938907 -0.03353958 0.0327461 -0.15731187 -0.23712833 0.025522096 -0.09189799
-0.12266616 -0.08305404 0.09308708 0.0727055 0.045278933 0.02388376 0.03237421 -0.013505281
-0.048353624 0.031799134 -0.026175048 -0.03581691 -0.056626577 0.02374609 0.04773201 0.097027525
-0.09368742 -0.03722285 -0.016240362 -0.10341678 -0.18623275 -0.2880659 -0.1827232 -0.13206962
0.05752349 -0.02425971 0.02528631 0.17051882 0.0036224725 0.08703229 -0.0015836828 0.0057570837
-0.0025164094 -0.08207836 -0.029610148 -0.0144160725 -0.092730545 0.088702455 0.09036921 -0.038754966
-0.027048219 0.041485194 0.028546907 -0.054194108 0.035400126 -0.0007950651 0.05493604 0.047637086
-0.003355659 0.04287935 -0.18672627 -0.04549929 0.0009350669 -0.028215721 -0.07826482 -0.03262159
-0.06740044 -0.052409243 -0.13026957 0.00422504 0.13348931 -0.21954717 -0.13386995 0.102390565
0.06781468 0.1466167 0.11673458 0.06376424 -0.021490451 0.038327754 -0.046142347 -0.0022147987
-0.093743436 -0.11535659 0.08677516 0.07074294 0.09428723 0.048783194 0.008590718 0.008018722
0.02186817 -0.041981794 0.044147465 0.050981943 0.009516626 0.029342081 0.013005875 0.026919454
0.008292868 -0.05098395 0.02231847 -0.0013145203 -0.056998655 -0.039778415 -0.07448821 0.025682423
0.064499564 -0.0007975036 0.118867226 0.07739564 0.094404116 -0.03706131 -0.15273917 -0.016852837
-0.1078855 0.13614169 0.10609894 0.027700914 0.115790084 0.06259395 -0.094232485 -0.232433
-0.061010584 -0.11383281 0.08747158 0.08639705 0.0056760847 -0.05750174 0.1931467 0.08249395
-0.16464862 -0.10111715 0.08365772 0.011257024 -0.19798337 -0.045160715 -0.08031658 -0.19866695
-0.108347766 0.05365223 0.08115799 0.051588744 -0.023694023 0.006811081 0.027950263 0.057279073
0.013470868 -0.07334369 -0.1943513 -0.062260635 -0.07097131 0.045241278 0.1236902 0.08139186
00000000: 06bc 4c3e 0f4f 123e 4814 70bc f02a 9d3c
00000010: c32a fabd f9de b1bd 8b10 a0bd eff7 0bbe
00000020: 16ca 23be b70a c5bc e99d 9d3d 7cee 3cbe
00000030: 2173 b23d 05ed 2e3e 1336 44bd 22f5 643b
00000040: b2ca cf3d aaed 6bbd 4adb 1bbd 5af1 58be
00000050: c7ba 37be e9ea 36be 2eda 6dbe 3496 1cbd
00000060: a3c1 0e3c 768e 18bc f906 af3d 2c52 06be
00000070: 98eb bfbc 3450 1a3d f862 c23c d09c 653e
00000080: 8f1e fe3d cf91 43bd 734c 073e 9d20 1dbd
00000090: 35a4 3e3d e8cd 353d 0d3f 19be 304a 3ebe
000000a0: 40f3 3abe d0a3 24be ae05 02be 7fc4 08bd
000000b0: 7115 f5bd cf71 443e d069 f6bc a4aa 0dbe
000000c0: 3271 62be 673d a9be 056c 0bbe 1c6b 9abd
000000d0: 507c bdbd d1c9 2a3e dbab 683d 7702 983d
000000e0: 6347 d6bc ede9 01be 827c 713d 6e79 33be
000000f0: 6d1e 2fbe 319d 14be 8569 33be 59e1 923d
00000100: 6829 1a3e cf4f 2e3d 0efe ca3c 55c4 a8bd
00000110: 2a16 913d fa5e 86bd 343d 2dbe 65e0 c93c
00000120: 6be7 aabd 143f b93d 4cd5 703a 98ce 64bd
00000130: cb30 4a3c 7e1a 493d baf1 aa3c af66 adbc
00000140: 85ad 063c 53fa 633d f578 bf3d 46cd a63d
00000150: 8d45 933d 635e 623d 7535 81bc b5d8 9ebd
00000160: f477 09be b6f5 acbd 7156 08be 13b2 53bd
00000170: a549 66bd a575 61bd 3beb b5bc 4712 40bb
00000180: 88ac d93b c2d9 c9bb 0347 0bbe a9e1 85bd
00000190: 3d14 cf3d 6460 883d 55d4 4ebd 2f11 5e3d
000001a0: fd41 863d 9773 fd3c cc60 09bd c620 063d
000001b0: 5d16 21be c5d1 72be b713 d13c 0335 bcbd
000001c0: 6538 fbbd 3d18 aabd 70a4 be3d 9fe6 943d
000001d0: 6776 393d e0a7 c33c d29a 043d 4145 5dbc
000001e0: 730e 46bd cf3f 023d 0e6d d6bc c1b4 12bd
000001f0: 45f1 67bd 2987 c23c a482 433d 5eb6 c63d
00000200: 31df bfbd fd76 18bd 820a 85bc 2dcc d3bd
00000210: ccb3 3ebe 607d 93be ca1b 3bbe 423d 07be
00000220: c09d 6b3d 4dbc c6bc 3c25 cf3c 7c9c 2e3e
00000230: 0167 6d3b fc3d b23d 9493 cfba eba5 bc3b
00000240: 58ea 24bb b318 a8bd fb90 f2bc 6431 6cbc
00000250: 83e9 bdbd a2a9 b53d 7e13 b93d 87bd 1ebd
00000260: 3a94 ddbc 61ec 293d 34db e93c a4fa 5dbd
00000270: b9ff 103d ea6b 50ba 9d04 613d 1b1f 433d
00000280: 9eea 5bbb 42a2 2f3d 2c35 3fbe 775d 3abd
00000290: 471f 753a a824 e7bc 4e49 a0bd 379e 05bd
000002a0: 3e09 8abd 13ab 56bd 6365 05be 3472 8a3b
000002b0: 6cb1 083e f9d0 60be 3415 09be 25b2 d13d
000002c0: 6ce2 8a3d b022 163e 8a12 ef3d d396 823d
000002d0: be0c b0bc 90fd 1c3d c2ff 3cbd 2826 11bb
000002e0: 8ffc bfbd 1340 ecbd 2db7 b13d ade1 903d
000002f0: aa19 c13d e3d0 473d 15c0 0c3c f560 033c
00000300: e024 b33c 1af5 2bbd f9d3 343d 71d2 503d
00000310: 9feb 1b3c ce5e f03c 9816 553c 3086 dc3c
00000320: cfde 073c 8cd4 50bd 39d5 b63c fb4b acba
00000330: 6c77 69bd b1ee 22bd 468d 98bd f263 d23c
00000340: 5918 843d 900f 51ba a970 f33d 9b81 9e3d
00000350: f256 c13d 9acd 17bd a867 1cbe f60e 8abc
00000360: 13f3 dcbd ba68 0b3e 674a d93d 07ed e23c
00000370: 5a23 ed3d 4231 803d f6fc c0bd eb02 6ebe
00000380: 3ce6 79bd 2d21 e9bd 4d24 b33d f0f0 b03d
00000390: 73fe b93b f286 6bbd 40c8 453e 97f2 a83d
000003a0: a699 28be 8216 cfbd bd54 ab3d 616f 383c
000003b0: 27bc 4abe 71fa 38bd 057d a4bd 596f 4bbe
000003c0: 6fe5 ddbd 71c2 5b3d 2936 a63d b84e 533d
000003d0: f819 c2bc 7d2f df3b f3f7 e43c 769d 6a3d
000003e0: eab4 5c3c 3735 96bd 0704 47be 0205 7fbd
000003f0: 6859 91bd eb4e 393d 4a51 fd3d c7b0 a63d

block_2.2.bias f4 [32]
0.10157353 -0.087871626 0.08156623 0.07395514 -0.13527392 0.019566262 0.0056491955 0.034149766
0.06398513 -0.13055064 -0.039998386 0.05633359 0.01713467 0.0075008627 0.08191611 0.05069059
0.0711926 0.0044378354 0.018119328 0.0004177926 -0.02308603 0.11472797 -0.094485685 0.092311874
0.07226106 -0.09773666 0.029541265 -0.019881258 -0.08294758 -0.0773665 0.0010516422 -0.028112136
00000000: c805 d03d 0af6 b3bd 320c a73d cb75 973d
00000010: 3f85 0abe 6d49 a03c e31c b93b a0e0 0b3d
00000020: a30a 833d 11af 05be 59d5 23bd 0dbe 663d
00000030: 025e 8c3c ccc9 f53b a2c3 a73d f0a0 4f3d
00000040: 6dcd 913d 436b 913b fc6e 943c 2c0b db39
00000050: ea1e bdbc 7ff6 ea3d b681 c1bd 020e bd3d
00000060: 9bfd 933d 282a c8bd 8600 f23c 05de a2bc
00000070: 6ce0 a9bd 5472 9ebd 42d7 893a 6c4b e6bc

classifier.1.weight f4 [10, 1568]
-0.012112759 0.15937558 0.012671893 0.0359438 0.0012459786 0.006649543 -0.014245863 0.065208286
-0.025906652 -0.07216681 0.0068535167 0.07535179 -0.13682231 -0.015540216 -0.0018828673 0.011153858
0.18166853 0.04556885 0.036994398 0.0859686 -0.13364306 -0.2181508 0.09800935 -0.16143286
-0.07716888 0.058508825 -0.04088849 -0.18932682 -0.14979847 0.016173245 -0.00872129 0.0038143836
0.012226456 -0.16717431 -0.06473211 -0.15832949 -0.2579855 -0.18008842 -0.05902856 0.10889525
-0.16381094 -0.0775725 0.033009082 0.020916922 -0.09933593 -0.047231127 0.034314357 0.017285842
0.040538743 0.032746453 -0.028927462 -0.015855333 0.04826403 -0.04049113 -0.042338423 0.023048127
-0.04677186 -0.037845064 -0.15893625 -0.14861852 -0.015781244 0.007716164 -0.016692132 0.046607252
0.015064872 -0.049295537 0.076188095 0.11741651 0.0098565025 0.016629258 0.019867944 -0.036580864
-0.08724922 -0.1261485 0.10394778 -0.015958853 0.0002548117 0.03664829 -0.06703222 -0.0049354597
-0.016108152 -0.016716313 -0.011179241 0.03098383 0.028297776 -0.0794217 -0.00037120728 -0.10816465
-0.07957027 0.07379141 0.07423143 -0.056380462 0.045005616 -0.046699688 -0.05632215 0.01373749
-0.08893232 0.0049987175 0.10324898 0.012079794 0.10611 0.044974238 0.065937236 -0.017582722
-0.016306216 -0.022082632 0.0177638 0.112615116 -0.009533167 -0.026818197 -0.10529089 -0.0069847843
-0.01886973 0.170167 0.17771679 -0.0017809729 -0.11094658 0.0312309 -0.027749095 -0.12309341
0.020813389 0.07359603 0.07685393 -0.007768142 -0.06107279 -0.03797355 -0.11097908 -0.28210214
0.039775126 0.11799587 0.08526292 0.0009177153 -0.1571719 -0.048963487 -0.38380367 0.02654082
-0.013316817 0.091495834 0.13789307 0.031359352 -0.028784484 -0.042388342 -0.34842 0.027957099
0.08980042 -0.102598526 0.069232956 -0.041065875 0.052990917 0.08209451 0.13910775 -0.049082823
-0.014796577 -0.031428993 -0.058134425 -0.004209895 0.021100536 -0.011235529 -0.06774612 -0.055833198
-0.045309592 -0.028001402 -0.11357836 -0.0078735445 -0.042689357 -0.13722013 -0.11015229 0.029305095
0.088263385 0.025200306 0.09234054 -0.040828105 -0.25968832 -0.0016306366 -0.07233796 0.016379423
0.039135218 0.091187544 0.085557155 0.03624462 0.031920634 0.051157344 -0.00030000904 -0.018323116
0.1785592 0.10968521 0.095905595 0.16975693 0.053872287 -0.0011590394 -0.050345924 0.0859839
-0.09040657 -0.1367574 0.009602742 0.009805429 -0.08190017 -0.04145454 0.087043375 -0.13011435
-0.06653222 -0.07016907 -0.14062765 -0.08451967 -0.04759125 -0.10506996 -0.117433146 -0.076637745
0.0685119 0.056239065 -0.081586756 -0.074979044 0.065952316 -0.011732214 0.029217301 -0.0015653091
0.052394915 0.027852431 -0.029166503 -0.040717386 0.15616474 0.14447483 -0.03713526 -0.043138072
-0.025350993 0.0023388213 0.012289014 0.08007418 0.088815674 -0.10528207 0.03199953 -0.058623973
-0.068340614 -0.031577338 0.0061300313 0.067164384 0.033033546 -0.05752387 0.08578222 0.049095266
-0.00024557655 -0.053515904 -0.0030381982 -0.06187213 -0.096356995 0.0032782678 -0.048775543 0.04113329
0.09408885 0.18632343 -0.0513671 0.029468985 -0.013416929 0.0034823336 0.021513887 0.085430644
00000000: 9874 46bc 5a33 233e c69d 4f3c ce39 133d
00000010: 1b50 a33a 69e4 d93b 7b67 69bc ec8b 853d
00000020: 303a d4bc 31cc 93bd 7793 e03b 0a52 9a3d
00000030: 261b 0cbe 649c 7ebc 8bca f6ba acbe 363c
00000040: 5107 3a3e 67a6 3a3d 7087 173d 4e10 b03d
00000050: bad9 08be ec62 5fbe 20b9 c83d a84e 25be
00000060: b80a 9ebd f3a6 6f3d b07a 27bd e4de 41be
00000070: c564 19be c17d 843c bee3 0ebc bdfa 793b
00000080: 7951 483c be2f 2bbe 4592 84bd 2021 22be
00000090: ad16 84be 1969 38be eec7 71bd 7904 df3d
000000a0: 0ebe 27be 55de 9ebd 8834 073d f759 ab3c
000000b0: a370 cbbd 6d75 41bd 368d 0c3d 0a9b 8d3c
000000c0: f40b 263d 2521 063d 49f9 ecbc 0be3 81bc
000000d0: 81b0 453d 07da 25bd 0e6b 2dbd 6dcf bc3c
000000e0: da93 3fbd 6d03 1bbd 2fc0 22be 742f 18be
000000f0: ab47 81bc e0d7 fc3b f0bd 88bc 3fe7 3e3d
00000100: a7d2 763c 1eea 49bd 8108 9c3d 1178 f03d
00000110: 2b7d 213c 153a 883c 19c2 a23c d1d5 15bd
00000120: b8af b2bd 132d 01be 93e2 d43d 24bc 82bc
00000130: 3f98 8539 841c 163d 3048 89bd a3b9 a1bb
00000140: 3ef5 83bc a6f0 88bc 2329 37bc cdd1 fd3c
00000150: bdd0 e73c d8a7 a2bd 999e c2b9 6e85 ddbd
00000160: bdf5 a2bd f31f 973d a606 983d 33ef 66bd
00000170: cf57 383d 2c48 3fbd 0eb2 66bd 3613 613c
00000180: 2622 b6bd 48cc a33b 3474 d33d 54ea 453c
00000190: 3350 d93d e836 383d 1a0a 873d a409 90bc
000001a0: 9d94 85bc a3e6 b4bc 6485 913c c1a2 e63d
000001b0: 0031 1cbc d6b1 dbbc c0a2 d7bd 9ee0 e4bb
000001c0: b194 9abc 4240 2e3e 64fb 353e 896f e9ba
000001d0: f637 e3bd f2d7 ff3c 1252 e3bc 6618 fcbd
000001e0: d780 aa3c 84b9 963d 9865 9d3d e68b febb
000001f0: 7627 7abd 278a 1bbd 0049 e3bd b16f 90be
00000200: 3eeb 223d d2a7 f13d 539e ae3d d592 703a
00000210: acf1 20be f08d 48bd ea81 c4be 226c d93c
00000220: c72e 5abc 2b62 bb3d d733 0d3e aa72 003d
00000230: 70cd ebbc 669f 2dbd 1b64 b2be 4906 e53c
00000240: 48e9 b73d 2d1f d2bd 02ca 8d3d b134 28bd
00000250: 010d 593d 2b21 a83d 4372 0e3e 120b 49bd
00000260: 586d 72bc b0bb 00bd 5d1e 6ebd 29f3 89bb
00000270: 08db ac3c 3915 38bc 7abe 8abd 5ab1 64bd
00000280: 8d96 39bd 3263 e5bc c59b e8bd 0a00 01bc
00000290: 09db 2ebd 6f83 0cbe 8697 e1bd 3d11 f03c
000002a0: 6fc3 b43d df70 ce3c 091d bd3d 5f3b 27bd
000002b0: def5 84be 16bb d5ba ed25 94bd 242e 863c
000002c0: 404c 203d 89c0 ba3d 9738 af3d 3d75 143d
000002d0: 36bf 023d 5d8a 513d 884a 9db9 5c1a 96bc
000002e0: 39d8 363e a4a2 e03d 276a c43d c3d4 2d3e
000002f0: 30a9 5c3d e9ea 97ba 8737 4ebd 5418 b03d
00000300: 1427 b9bd 220a 0cbe d254 1d3c f3a6 203c
00000310: 47bb a7bd 3ccc 29bd cc43 b23d b23c 05be
00000320: 0b42 88bd cdb4 8fbd b200 10be a618 adbd
00000330: 0bef 42bd eb2e d7bd ca80 f0bd 40f4 9cbd
00000340: f84f 8c3d ef5a 663d f516 a7bd 9d8e 99bd
00000350: 0212 873d 7938 40bc 1f59 ef3c 0f2b cdba
00000360: 0d9c 563d c82a e43c 97ee eebc 46c7 26bd
00000370: a6e9 1f3e 36f1 133e 241b 18bd 8cb1 30bd
00000380: e3ac cfbc e946 193b dc57 493c effd a33d
00000390: fee4 b53d 209e d7bd f011 033d b11f 70bd
000003a0: 2af6 8bbd 3d57 01bd 6ede c83b 7b8d 893d
000003b0: 2f4e 073d 269e 6bbd 97ae af3d 1e18 493d
000003c0: bac0 80b9 7e33 5bbd 821c 47bb a16d 7dbd
000003d0: d156 c5bd 35d8 563b ddc8 47bd 617b 283d
000003e0: a8b1 c03d 92cb 3e3e 4f66 52bd f168 f13c
000003f0: aed2 5bbc dd37 643b e43d b03c 43f6 ae3d

classifier.1.bias f4 [10]
0.03034704 -0.02867722 -0.031771753 0.024320288 -0.007304345 -0.08030965 0.04269171 0.058220796
0.01900176 -0.027274063
00000000: 5b9a f83c 7dec eabc 1923 02bd 573b c73c
00000010: 4959 efbb 6379 a4bd 81dd 2e3d ee78 6e3d
00000020: 94a9 9b3c db6d dfbc
