model/model_weights.pth (torch, 35173 bytes, 10 tensors)

block_1.0.weight f4 [10, 1, 3, 3]
00000000: 6d80 da3e b83d 023f ec14 223d b524 023f
00000010: 9f84 423e 8a2d 623e 0802 1bbd 6b91 be3e
00000020: 6d62 b93e f851 20be 8577 043f 0cea 073e
00000030: 3896 ce3e 4f89 ab3e adb9 913e b0d2 bc3d
00000040: 78bf 003f 6af9 f53d 1fb7 75be c151 123d
00000050: 0892 e7bd a97f 71be b90c 8dbe 6aa1 533e
00000060: cfd7 e1be b71c 93be b4a6 c2bd 5eda 46be
00000070: 6abd eb3b 0142 b3be b311 b93e fa2a 93be
00000080: f823 873e 3b96 163e f41a 98bd 26ca 763e
00000090: c8df 2e3e 90e8 f23e 5ff0 f03d 35b6 7a3d
000000a0: 3665 af3e 5a62 d93c bb36 8e3e f38e 043f
000000b0: 0432 8a3e e3cf 14be 6e78 453e 4e87 763d
000000c0: f160 2e3e 3dd9 4fbe 17fd a8be 0897 03be
000000d0: beec 82be e283 8b3e a2a8 603e 5981 563e
000000e0: 637f fe3d 3c0e 103e 8dd1 a33e 5218 6dbe
000000f0: ac38 053e ed12 5bbe 99ff 6e3d 1415 febd
00000100: 4138 c83d 0700 8cbd 9480 823e d18a 55be
00000110: ab75 4cbe d9e9 61be 3295 8d3e a8d4 c23d
00000120: 5624 9f3e 258e 8dbe 6c1f a9be 3db4 8bbe
00000130: 75c9 67be 877f 093e dff6 db3d bed0 8b3e
00000140: 020b 30be e8aa 68be 7907 353e 5e04 0abe
00000150: 8532 4f3e 3634 a2bd bc21 433e cf99 84be
00000160: ab3f 2cbe 1afb cf3d
0.42676106 0.50875425 0.039570734 0.5083726 0.18995903 0.22087684 -0.037843734 0.3722032
0.36207905 -0.15656269 0.5174487 0.13272876 0.40348983 0.33503196 0.28461972 0.09219873
0.5029216 0.120104626 -0.23995636 0.035722498 -0.1130715 -0.23583855 -0.2754877 0.20667043
-0.4410996 -0.28732845 -0.09504452 -0.19419238 0.007194211 -0.35011294 0.36146316 -0.28743726
0.2639463 0.14705746 -0.07427016 0.24100551 0.17077553 0.47443056 0.11764597 0.061208922
0.34256905 0.026536155 0.2777613 0.51780623 0.26991284 -0.14532427 0.19284222 0.06018763
0.17029168 -0.20297714 -0.33005592 -0.12850583 -0.25571245 0.27249056 0.21939328 0.2094778
0.12426641 0.1406793 0.31995812 -0.23153809 0.130099 -0.21393938 0.058349226 -0.12406364
0.097763546 -0.06835943 0.25488722 -0.20853736 -0.19966762 -0.22061862 0.2765289 0.09513217
0.3108241 -0.2764751 -0.33031785 -0.27285948 -0.22635444 0.13427554 0.10740446 0.27307695
-0.17191699 -0.22721446 0.17678632 -0.13478228 0.20234115 -0.07920115 0.19055837 -0.25898597
-0.16821162 0.10155316

block_1.0.bias f4 [10]
00000000: 2d68 d83d ba3c cd3d 4948 9f3e a923 b73e
00000010: cf4a 8c3d f7b4 36be 8065 053f 352f 12be
00000020: e804 04be c730 a5be
0.10566745 0.10021348 0.31109837 0.35769394 0.06850206 -0.1784247 0.52108 -0.1427582
-0.12892497 -0.32263777

block_1.2.weight f4 [10, 10, 3, 3]
00000000: ab19 86bd 7266 e1bc dd48 44bd 32fe afbd
00000010: 8ee5 fabd bc1d 54be 3f4f dfbb 34ec f1bd
00000020: d58e 52be 1f7f adbd 6324 003d 738b 13bd
00000030: b3ce 2c3c 6196 61be 743d 46be cabb 1e3b
00000040: d0f1 45bd ffe8 33be 478a 593a a487 c93c
00000050: 7d37 e23d c40e 893b 13ab b13d 7c2c 843d
00000060: 8e7b 04bd b2c9 503c ffda 9e3d 52ee b2bd
00000070: 18bb 993d 830e b6bc e882 133e 144e 903d
00000080: 03e9 45bd 89f6 293e ab5e 883d 79e7 643d
00000090: 795d bdbd 9aa0 31be 6a0a 17bd 3bd1 9fbc
000000a0: 3582 79bd 40d4 56be 8c11 1c3e 8d87 edbd
000000b0: e696 c8bd f1d3 b43c 997f 5f3d 973b ae3d
000000c0: 5be7 c43d 4211 abbd dd1b da3c 1b75 39bd
000000d0: 3d9a 3cbc 8b5e a1bd 2311 333e 78fa 52bc
000000e0: 0283 013e 961f f23d a151 a33d 96c9 8dbc
000000f0: 65d3 493e 4d02 933d 79dd 1f3d ddf7 babd
00000100: 0561 3e3d 9538 79bc 6c2b 24bd 3ab2 c03d
00000110: 62ac cf3c 8508 48bd 5db8 32bd 54c4 16ba
00000120: 4d24 7a3d 4f5b d2bc d9a4 6ebd 8d6d 06bd
00000130: 5e69 96bd 9689 243d 8426 b63d 1c3c bebd
00000140: 653f e93c ba0a 5f3d cf8f 9c3c 76bc 19bd
00000150: 525d 613d 17e3 623d c476 213d 12c4 97bc
00000160: d1a7 e4bc a3bf 383c e159 88bc ae1a f7bc
00000170: 5756 8a3d 821d bd3d d917 17bc fa25 c0bc
00000180: fbb8 1c3b 8f7a c0bb 9291 d03c 1ddf ff3c
00000190: 47ab c2bd 3b2e 1fbd c661 b83d 0534 2a3d
000001a0: 809f acbb 1058 81bd b4e1 83bd 744d c1bd
000001b0: 7fbc 0cbd 30cc 113d 000f 8a3d 0c8f 473d
000001c0: ecc1 bebd 376b 81bd 1adf 87bc 1216 d13d
000001d0: 1a84 7c3c e3ba dbbc 659f 353d f089 22bd
000001e0: 49cf 8abd 9ec6 9e3d 3cfd 42bd 2d4b abbc
000001f0: b773 d6bd 08fc 903d cf55 a73d aaab 203d
00000200: e475 96bd d1e7 d2bd d473 aebd ffff a03d
00000210: b283 513d 3f32 b63d c25a 623d 5d8c da3c
00000220: d65d 87ba 3a2d a4bd 63f5 b8bd caeb c9bd
00000230: 43c0 303d c3fa 53bd c2c8 adbc c37b 78bd
00000240: 64b7 91bc 1b77 95bd 6b0a 8cbd af94 153d
00000250: f2ba f7bc 177a 863d 0e4e 07bd f41b 9dbd
00000260: d8ca 95bc f541 51bd 5d13 04bd 1581 cdbd
00000270: d4ad 713d b542 96bd a111 593d 98ee 433d
00000280: 0b44 9a3d 5b97 a5bd f646 9b3d 4703 4cbd
00000290: e65b 203d dcbb ca3d 5552 73bc af41 53ba
000002a0: b4ba c6bc b310 b4bd 2839 4f3d 5d4e d6bd
000002b0: 6304 863d 8586 a13d b228 cc3d 75ad cbbc
000002c0: e25f b1bd cc24 c23c 9283 6e3d 8edd d6bd
000002d0: 9901 c4bc 2169 81bd 630f 17bc f576 54bd
000002e0: 4f74 30bd 6116 09bd f326 cdbd 3422 b13d
000002f0: 79fe b43d de75 87bc 15ac 44bc 2735 30bd
00000300: bded c2bd d50e d2bd 1e76 203d ad00 6dbd
00000310: 78c9 8abd 07c5 06bc 06c9 0fbd edaf 0bbd
00000320: e6da 5d3b ecfa b6bc c48a 14bd 5eb5 4ebd
00000330: 26ad afbd bd12 b53d d8c7 2cbd 2bcc e43c
00000340: 5ecf 15bd 6a4e 0c3c f856 c93d c60c 473d
00000350: 7213 bbbd c189 2b3d 9cfb cc3d 9934 e33c
00000360: ffba 903d edd4 d43d 9a50 84bc c94e b33c
00000370: de06 96bd 9bf3 b1bc 93e4 9f3d d34a 5d3d
00000380: 559e 88bd 061c adbd f685 93bd 9b0b d5bd
00000390: 7b94 a6bd f98b d5bc b4b0 913d 6489 903c
000003a0: 9b32 a4bd c02e adbd b0c7 563d 4c95 a0bd
000003b0: ddaf 54bc 0354 4f3d fd9f 47bd 9734 3cbc
000003c0: 1e58 15bc 85d0 cbbc 4be5 5abd 2c71 c0bd
000003d0: b281 aebd 5f30 67bd b480 d03d 488b 50bd
000003e0: 20fa 90bd ce46 d13c d0f2 ed3c a499 6c3d
000003f0: fc17 a43d e76e 703d 1d0b d6bd f427 193c
-0.065478645 -0.02751467 -0.04792105 -0.08593406 -0.12250815 -0.20714468 -0.006814867 -0.1181263
-0.20562299 -0.08471512 0.0312847 -0.03602166 0.010547328 -0.22030021 -0.1935938 0.0024220818
-0.048326313 -0.1756935 0.0008298498 0.024600811 0.1104574 0.0041826684 0.08675208 0.06453797
-0.032344393 0.0127434 0.07756614 -0.08736862 0.075063884 -0.022223717 0.14405406 0.07046142
-0.04831792 0.16597952 0.066586815 0.055884812 -0.09246344 -0.17346421 -0.036875166 -0.019508949
-0.06091519 -0.20979404 0.15241069 -0.1159812 -0.097944066 0.022073718 0.054565046 0.085074596
0.0961444 -0.08352901 0.026624614 -0.045277696 -0.011511383 -0.07879361 0.17487006 -0.012877099
0.12647632 0.11822431 0.07974554 -0.017308038 0.19709547 0.07178173 0.039029572 -0.091293074
0.046479244 -0.015211244 -0.040080473 0.09408994 0.025350753 -0.04883625 -0.043632854 -0.0005751301
0.061069775 -0.025678305 -0.05826268 -0.03281932 -0.07344316 0.040170275 0.08894065 -0.09288809
0.028472612 0.05445359 0.019111542 -0.037533246 0.055020638 0.05539235 0.039419904 -0.01852611
-0.027912052 0.0112761585 -0.01664442 -0.030164089 0.06754749 0.09234144 -0.009221994 -0.023455609
0.0023913968 -0.005873985 0.025460038 0.031234318 -0.09505325 -0.03886245 0.09003024 0.041553516
-0.0052680373 -0.06315625 -0.06439534 -0.09438601 -0.03435945 0.03559512 0.06741142 0.048720405
-0.093143314 -0.06319278 -0.016585875 0.10209288 0.015412355 -0.026822513 0.044341464 -0.03968233
-0.06777818 0.07752727 -0.047604784 -0.02090987 -0.104712896 0.07079321 0.081706636 0.03922621
-0.073467046 -0.10298122 -0.08518186 0.078613274 0.051150985 0.088963024 0.055262335 0.026678259
-0.0010327648 -0.08016439 -0.09031179 -0.09859426 0.043152105 -0.051752817 -0.021213893 -0.060664903
-0.017787643 -0.07298108 -0.068379246 0.03651875 -0.03024051 0.065662555 -0.033033423 -0.07671347
-0.0182852 -0.051088292 -0.03224503 -0.10034386 0.059003666 -0.07336942 0.052995328 0.047834963
0.075325094 -0.080855094 0.07581894 -0.049807813 0.03915014 0.098991126 -0.014851172 -0.0008058799
-0.024258949 -0.087922476 0.050591618 -0.10464165 0.065438055 0.07886986 0.099686995 -0.024862984
-0.08660866 0.023699187 0.058230944 -0.10491477 -0.023926543 -0.0631888 -0.009219977 -0.05187126
-0.04307967 -0.033468608 -0.100171946 0.08649102 0.08837599 -0.016535696 -0.012003918 -0.04301944
-0.09518001 -0.10256735 0.039175145 -0.057861973 -0.06776708 -0.008225686 -0.03510382 -0.034103323
0.0033852397 -0.022336446 -0.03626515 -0.050465934 -0.08577947 0.08841465 -0.042182773 0.027929386
-0.036574714 0.008563617 0.09831041 0.048596166 -0.09134568 0.04187942 0.10008928 0.027735041
0.07066917 0.10392175 -0.016151715 0.021888154 -0.073255286 -0.021722605 0.07807269 0.054026436
-0.066708244 -0.08452611 -0.072032854 -0.10402604 -0.08133789 -0.02606772 0.071137816 0.017643638
-0.08017465 -0.084561825 0.05243653 -0.07840976 -0.012981382 0.05061723 -0.04873656 -0.011487148
-0.009115247 -0.024879703 -0.053441327 -0.09396586 -0.08520831 -0.056442615 0.10180798 -0.05091408
-0.070789576 0.025546458 0.029046446 0.05776371 0.08012387 0.058699515 -0.104513384 0.0093479045

block_1.2.bias f4 [10]
00000000: 3b43 803e 28ec 3dbd 4b80 5fbd ca74 49bd
00000010: bf46 b43d 55e1 bcbd 0ece d4bb 46a7 6dbd
00000020: 0406 283d 8f57 25bd
0.25051293 -0.046367794 -0.05456571 -0.049183644 0.08802556 -0.09222666 -0.00649429 -0.058020853
0.041021362 -0.040366706

block_2.0.weight f4 [10, 10, 3, 3]
00000000: 5897 ba3d 7e34 8fbd 8ff1 49bd 2826 403d
00000010: 52f6 c13c 54e2 533d 1ee9 3fbd 7f9c 593d
00000020: d158 8d3d d2bf 6f3d 4511 c9bd a8c4 24bd
00000030: f9a6 b9bd 70ce 88bd 98a0 703d 06e6 80bc
00000040: 9b5a 373d 4349 7dbd d735 833c 9a93 82bd
00000050: 34d7 573d 1dd9 3cbd 768d d8bc c74d bbbd
00000060: 7594 b639 dcf8 cc3d ac90 513d 34e9 06be
00000070: bbd7 a2bd 3c1a fcbb 5294 a6bd 8676 7b3d
00000080: e679 c83d e108 0f3d 0d9c d8bd 0df7 31bd
00000090: e53f a6bd e6cf 3ebd 7638 133d ea3d 02bc
000000a0: 8bbe 233e 22cc 3c3e 3a5b 39bc 4af8 ccbd
000000b0: 3bb1 1c3e c42f c9bb dddd 4fbd 650d c5bd
000000c0: 3512 15bd e320 c4bd 9781 c1bd ae58 9c3d
000000d0: 897d 9d3d f939 963d 0193 c9bd 3439 b13c
000000e0: 90c8 4fbd 3d9b a63d 54cd c63d 109b 203e
000000f0: 417c cf3d 7b4c 703d 5a91 bb3c fe74 55bc
00000100: 80f6 01be 04ad 1f3d 1e2f aebc a82d 44bc
00000110: 1495 223b fbf6 223b c8c4 d8bd ef8b fbbc
00000120: aafe 29be 1b28 4ebe 418a e23c 1084 a13d
00000130: fdf4 ef3d c459 763e a39e 2dbc 4302 1ebe
00000140: a15d b23d 5a27 7f3d 65aa b0bd 62e2 1f3d
00000150: 28c2 b93d 879f 153c 3df6 7bbd ac90 b33d
00000160: d829 413d 7176 913d 1996 55be 7571 d7bd
00000170: 7796 17be 87c2 b43c 58be 35be cda2 acbc
00000180: a658 923b 8a75 5ebc f753 88bd 5f2a 313d
00000190: 0507 34bd d390 cbbd db10 26bd 140e a93d
000001a0: eb01 e4bc d872 063d 6785 1fbd 839f a13d
000001b0: 0632 813d 0e6a 183d c2b2 5cbd b266 b0bd
000001c0: 7601 823b 4d4d 7dbd 4c7e b13d 5c74 cfbd
000001d0: d9ef 403d 7a05 9a3d 35b0 473e e479 e1bc
000001e0: 5c83 16be 1c73 7d3e 530b 4ebc f669 32be
000001f0: dac2 a63d 59d5 27be fb7d 2f3d 6e9e 9c3e
00000200: addd 62be 35c7 e6bb 3ae3 993e 9932 1ebd
00000210: 1b62 c4bc c812 5fbd 4576 38be 6ac0 b3bd
00000220: f21c 10be ac52 21be 08a5 433d 7b01 60bb
00000230: 1e42 febd 7185 643d c63b 033b f630 b9ba
00000240: c8b0 b3bd 2465 d93d aae3 c83d b266 ab3d
00000250: 2065 eb3c c3ba f63d 26bc 303b 5618 a93d
00000260: e8e7 0a3d 5b72 0e3d 4e14 363d b085 4d3d
00000270: 3ef5 eebd 85f7 133e 4515 8ebd aaa9 bbbd
00000280: 0143 613c 6348 ddbd 2c91 27bd 2c19 893e
00000290: 1d1a ab3d d924 b83d 6e48 c03e c3e4 fc3d
000002a0: ef35 203d a4f3 8f3d a053 ecbd 26d4 273d
000002b0: 473c 98bd 97ab a1bd 2df6 fb3c f826 c7bc
000002c0: b92d 593b f1aa 6cbc 10cb d43c 60d8 8c3d
000002d0: cdb2 94bd e319 babc 6722 143d 2edc f4bd
000002e0: 3166 4cbe 5586 11be 240c 98bd 52c4 91bd
000002f0: 23c7 0bbc 7e4d d2bc 054b 5abd c533 09bd
00000300: ce66 1cbd d097 d33d 6225 20bd 97f3 9abd
00000310: 890c 333d d8b0 cbbb 3643 a53d 7be1 863d
00000320: cb53 c63d b31a 9ebd b0c7 8a3d 4e2d b53d
00000330: 3437 55bd 436e c63d c3d4 a13d 116d 10be
00000340: bc59 c33d 3caf 96bd 85fc 6abe 409e 023e
00000350: ddc2 8a3d 57b8 14be 485e 9a3d 02c3 3bbe
00000360: 6402 d8bc d237 783e cc47 0bbd be56 18be
00000370: 4ba9 a23e 5326 883d dba2 823b ebd7 1a3e
00000380: 8143 aabd 570b 9ebd 79a6 bbbd 983a 26bd
00000390: 752f 06bc a034 723d 8725 d0bd 81f9 c0bc
000003a0: a372 103b 0cd9 8fbd 7f9b cd3a e9f9 463d
000003b0: 9e8a 9bbd 2947 7dbd 0055 093d a27c 993d
000003c0: 6300 d4bc 2f13 3cbd 8850 f3bc 63ee 03be
000003d0: 691f 0b3c e4d3 a93d fef6 10be 1f4e 193e
000003e0: 0854 9b3d 36b0 1bbe fa1e 713d 2696 c13c
000003f0: 6a1e 80be 2322 4e3d 6753 193e f8ef 54bd
0.09110898 -0.06992434 -0.049302634 0.04691139 0.023677025 0.051729515 -0.046853177 0.053127762
0.06901706 0.058532543 -0.09817747 -0.04022661 -0.09065051 -0.0668 0.058746904 -0.015734684
0.044764142 -0.061837446 0.016016884 -0.06375809 0.052695468 -0.046105493 -0.026434641 -0.09145694
0.00034824354 0.10008404 0.05116336 -0.13174897 -0.079513036 -0.007693557 -0.081337586 0.06139233
0.09788875 0.034920577 -0.10576639 -0.043448497 -0.08117656 -0.046584986 0.035942517 -0.007949332
0.15990655 0.18437245 -0.011313254 -0.10008295 0.15301983 -0.0061397273 -0.050748695 -0.096216954
-0.036394317 -0.09576585 -0.094485454 0.07634102 0.076899596 0.07335276 -0.09842492 0.021633722
-0.05072838 0.08135078 0.09707132 0.15684152 0.101311214 0.058666687 0.022896457 -0.013028381
-0.12691689 0.03898336 -0.021262702 -0.011973776 0.0024808096 0.002486645 -0.10584408 -0.030706374
-0.16601053 -0.20132487 0.027653815 0.07886517 0.1171665 0.2405768 -0.010596904 -0.1543055
0.087092645 0.062293388 -0.0862625 0.039034255 0.090702355 0.009132273 -0.061514128 0.08767828
0.047159046 0.07102669 -0.20858039 -0.10519687 -0.14803492 0.022065414 -0.17748392 -0.021073723
0.004466134 -0.013577828 -0.0665664 0.0432533 -0.043952007 -0.099397324 -0.04054342 0.08254638
-0.027832946 0.032824367 -0.03894558 0.078917526 0.06308369 0.037210517 -0.053881414 -0.086133376
0.0039674593 -0.061841298 0.08666667 -0.10129616 0.047103737 0.07520576 0.19500811 -0.027523942
-0.14698547 0.24750942 -0.012575942 -0.17423233 0.08142634 -0.1638998 0.042844754 0.30589622
-0.22154875 -0.0070427903 0.30056173 -0.038622472 -0.023972562 -0.05446127 -0.18013866 -0.087769344
-0.14073542 -0.15754193 0.047764808 -0.003418057 -0.124149546 0.055791322 0.0020024641 -0.0014128971
-0.08773953 0.10614994 0.098090485 0.08369197 0.028734744 0.12047341 0.0026967614 0.08256595
0.03391257 0.034777027 0.044452958 0.050176322 -0.1166787 0.1444989 -0.069376506 -0.0916322
0.013748885 -0.10804822 -0.04090993 0.26777017 0.0835459 0.08991403 0.3755526 0.1234832
0.039113935 0.07028893 -0.11539388 0.040973805 -0.07433372 -0.07894056 0.030757034 -0.024310574
0.0033138825 -0.0144450525 0.025975734 0.06877208 -0.07260666 -0.022717422 0.03616562 -0.119560584
-0.19960858 -0.142114 -0.07424191 -0.07117523 -0.008531365 -0.025671717 -0.0532942 -0.033496637
-0.03818398 0.1033169 -0.03909815 -0.07565992 0.043713126 -0.00621615 0.0806946 0.06585976
0.09683951 -0.07719936 0.067763686 0.08846532 -0.0520546 0.096889995 0.07901909 -0.14104106
0.095386 -0.07357642 -0.22947891 0.1275568 0.067754485 -0.14523445 0.07537514 -0.18336108
-0.026368327 0.24240044 -0.034004018 -0.1487684 0.31769785 0.06647935 0.003986699 0.15121429
-0.083136566 -0.07717007 -0.091626115 -0.040583223 -0.008190026 0.05913222 -0.10163408 -0.023556473
0.0022040985 -0.0702382 0.00156866 0.048578177 -0.075947985 -0.06183544 0.033528328 0.07494475
-0.02587909 -0.045916732 -0.029701486 -0.12883906 0.0084913755 0.08292368 -0.1415672 0.14971207
0.07584387 -0.15203938 0.058867432 0.023631167 -0.25023204 0.050325524 0.14973222 -0.051986665

block_2.0.bias f4 [10]
00000000: 031b 4c3d 1c3d b4bc fd90 9f3d cf11 c6bd
00000010: b9d2 cdbd c8c2 dd3d ac43 203e 00c0 80bd
00000020: 45ef d33e bf24 adbd
0.049830448 -0.022001795 0.07791326 -0.096713655 -0.10049958 0.10828167 0.15650815 -0.06286621
0.41393486 -0.084542744

block_2.2.weight f4 [10, 10, 3, 3]
00000000: 10a5 e9bd c853 b7bd fc65 593d f086 1abd
00000010: f3db df3d d103 963c 0ce7 ed3d 580e 99bd
00000020: 3b82 9bbc 222a 0d3e 8e24 d3bd b66a 803c
00000030: c6a2 6dbe 3413 e03d a75c a0bb 0c2d 0abe
00000040: e152 923e fbb7 05be ca09 89bc ba27 0c3b
00000050: f7b4 523e d595 21be 2387 3b3e 2add 8d3d
00000060: 2fb6 813c f2ac 443e bfa5 7fbe 1ce1 adbd
00000070: 8f7d d03d 39a3 81bd 4c9b 9bbd d0e3 a8bb
00000080: 0c3b 0abd 9041 6cbc f1a2 90bd b5c8 1b3d
00000090: 5ac2 b9bd 78e0 0b3c 66f2 7b3d 74e9 a53c
000000a0: 3878 653c 109a 7c3c 6cf7 fcbc 647f a4bc
000000b0: 9a11 36bd a8f7 a5bd 64da a5bc 064f 4c3e
000000c0: 8292 febc 660d 833d 41be e83d 6576 673d
000000d0: 4763 bcbd cd14 2ebe 0843 73bd 4993 62bb
000000e0: 434a 99bd 9b4b aabd 78ec 7c3d e8ca ea3d
000000f0: 9e03 193d fc0b a23d 5576 ba3c 9ab5 b0bc
00000100: 7a6b 163d aa98 453c 3704 a4bd a14b 12bb
00000110: 9bb7 eebc c998 ce3d 8e96 993c 69ff c4bc
00000120: dacc 753e 4d72 18bd e0c0 22be 4d44 a6bb
00000130: 0627 10be 87f7 b03d 9fbc 3cbe bb9d a4bd
00000140: 6e60 263e 60bf 9bbd 6cd7 c23c f808 90bd
00000150: e864 6bbc 3a97 c8bd 833b 46bc 2f43 313c
00000160: fb87 09bd 5369 b0bd d0bf bb3d 856b 163d
00000170: e1fd 8bbb 4c05 0bbe ce59 c3bd e066 35be
00000180: 3aef ef3c fc67 96bd 5689 41bd 4fff d13c
00000190: f859 253e b1d4 093e 0ce4 143e ec83 a5bc
000001a0: 56d5 02bc 3c6a 53bc 7edf 19be fe62 30be
000001b0: b773 733d e8bb f53d a631 f53d a9c2 813d
000001c0: f5bc e8bd 6c31 f0bd 0956 b7bd a5da 31be
000001d0: 5a6e 13be e8a7 b0bd 703a 243d 21bf 983d
000001e0: e6c2 083c 7d8b 9abd 937b a3bd e714 28bd
000001f0: d02a fb3c be67 283b 6c01 9d3c 0d76 cb3d
00000200: 9a86 483d bcac b93c 20b5 aebc ea3d 4c3d
00000210: 36f4 1d3d fb4f c2bd d60a 7fbd 3487 8e3b
00000220: 5be5 aa3d ef91 8c3d b434 cbbd 98b8 0bbe
00000230: c108 febc e238 bfbd 3cf4 4cbd 339c aabd
00000240: f1b0 0f3e 35c0 9d3d 43b8 0d3e 33b5 cabd
00000250: e80b 9dbc 0961 a4bd c778 b1bd 33bf 003d
00000260: f2ab 03be bce3 fd3d bd74 e8bc 1d5f d2bd
00000270: e49e 233d 9000 91bc ee69 c2b9 d8fb 8a3d
00000280: cf68 a4bd e317 c33d 9db1 28be cd57 fcbd
00000290: 9ae3 e53c 9897 303e 61cd d03c fa1d 333d
000002a0: 462a 143e 898f acbd 7500 d4bc df58 67bc
000002b0: 462f fa3c 9dc6 9c3d 2626 b3bd a2b9 28bd
000002c0: acf0 8e3d 3d35 85bc 3be8 d43c bc3c 08bc
000002d0: 3b20 0a3e 65d9 ba3d abfd fd3c 35c4 47bd
000002e0: aff5 3abd 9126 2fbd 7b2f 9c3d 4ee1 103e
000002f0: a2cf cfbb 0cd8 03be 6d14 8ebd 2953 ccbb
00000300: 72c9 a33d ec0c e23d 0f9a f93d 7b30 163d
00000310: 0cca 1d3e 7108 2d3d a1d3 9bbd 2131 f0bb
00000320: 4dd3 12bd 538d a33d 7380 073e 8728 4c3b
00000330: 3bea 3a3d 86ba 443d 6aef 9ebd bc05 a8bd
00000340: d59f 9e3d 81d6 643d 879f 8a3d 62bf 04bc
00000350: 440f a1bd 63fe 993d 45bd 3cbd 9d36 e33c
00000360: 069c 743d 61be c9bd 7039 e53b 0a5f 19bd
00000370: 7d38 993d 3073 89bd 1f13 833d 799d 863d
00000380: d634 6e3d 10f9 6b3d bbae d73c de5f 0abe
00000390: d034 023e e5f4 dbbb a7ec 97bd aaee 0fbd
000003a0: a664 e8bc 3cbb e5bd dec1 283e 6ea6 323e
000003b0: 0e1b 333e 18a3 af3d 90c1 51bd d481 e4bc
000003c0: 2b46 3ebd 04eb b53c 3f9a d63d 8a24 23bd
000003d0: 0d19 b93d 7372 f9bd f5f6 90bd 8dec 8e3d
000003e0: ad13 773d f224 7b3c 993c 0dbd 1665 1fbe
000003f0: 4bef 91be 223c b5bd 74a7 c9bd e7f2 68bd
-0.11408436 -0.08951527 0.053075776 -0.037726343 0.10930624 0.018312367 0.11616334 -0.07473439
-0.018982997 0.13785604 -0.10309707 0.015675884 -0.23206624 0.10941163 -0.0048938575 -0.13493747
0.28578857 -0.13058464 -0.0167283 0.0021385984 0.20576845 -0.15779813 0.1831327 0.06926949
0.015833942 0.19206598 -0.24965571 -0.08490202 0.101801984 -0.063299604 -0.0759798 -0.0051541105
-0.033747718 -0.014419928 -0.070623286 0.038033206 -0.09070273 0.008537404 0.061510466 0.02025292
0.014005713 0.015417591 -0.030879699 -0.020080276 -0.04445038 -0.08103877 -0.020245738 0.1995202
-0.03107572 0.0639904 0.11364413 0.056509394 -0.09198623 -0.17000122 -0.059390098 -0.0034572652
-0.074848674 -0.08315202 0.06174895 0.114644825 0.037356965 0.07912442 0.022761503 -0.02157097
0.03672359 0.012060324 -0.080086164 -0.002232291 -0.029140284 0.10087735 0.018748548 -0.02404757
0.24003926 -0.03721838 -0.15893888 -0.00507406 -0.14077386 0.08640962 -0.18431328 -0.08037897
0.16247723 -0.07604861 0.023784362 -0.07032961 -0.01436732 -0.09794469 -0.01209915 0.0108192405
-0.033576947 -0.08613839 0.09167445 0.036723632 -0.004272208 -0.1357624 -0.09538613 -0.17715025
0.029288877 -0.07344052 -0.047250114 0.025634436 0.16147602 0.13460042 0.14540118 -0.020204507
-0.007985434 -0.012903746 -0.15026662 -0.17225263 0.059436526 0.11998731 0.1197236 0.063359566
-0.11364166 -0.117281765 -0.08951957 -0.17368563 -0.14397565 -0.086257756 0.040094793 0.0745833
0.008347249 -0.075461365 -0.07982554 -0.04103556 0.030660063 0.00256966 0.019165717 0.09934626
0.04895649 0.022665374 -0.021326602 0.049863733 0.038562976 -0.09487911 -0.062266193 0.0043496136
0.08344527 0.06863772 -0.09922162 -0.13644636 -0.031010034 -0.093370214 -0.050037608 -0.08330574
0.14032342 0.07702676 0.13839822 -0.09897842 -0.019170716 -0.080263205 -0.086656146 0.03143234
-0.1285856 0.123969525 -0.028375978 -0.10272048 0.03994645 -0.017700464 -0.00037081487 0.06786317
-0.08027803 0.095260404 -0.16474004 -0.12321434 0.02806263 0.17245328 0.025488557 0.04372976
0.14469251 -0.08425815 -0.025879124 -0.01412031 0.03054012 0.0765507 -0.087475106 -0.04119266
0.06979498 -0.016260738 0.025989642 -0.008315261 0.13488857 0.09123496 0.031004747 -0.048771102
-0.04564446 -0.04276139 0.07626244 0.14148447 -0.0063418904 -0.12875384 -0.0693749 -0.0062354994
0.07997407 0.11037621 0.121875875 0.03666733 0.15409106 0.04224438 -0.076087244 -0.0073300754
-0.035846043 0.0798594 0.13232593 0.0031152086 0.045633536 0.048029445 -0.07760508 -0.08204219
0.07745329 0.05586863 0.06768709 -0.00810227 -0.0786424 0.075192235 -0.04607894 0.027736003
0.059719108 -0.09850765 0.0069953725 -0.037444152 0.074814774 -0.067114234 0.064001314 0.06573004
0.058155857 0.05761057 0.026328435 -0.13513133 0.12715459 -0.0067125433 -0.07418185 -0.035139717
-0.028368305 -0.11217353 0.16480204 0.174463 0.1749079 0.085760295 -0.051209986 -0.027893938
-0.046453636 0.02220679 0.10478639 -0.03982977 0.09037981 -0.121800326 -0.07078353 0.06978712
0.0603215 0.015328633 -0.03448162 -0.15565905 -0.2850288 -0.0884936 -0.09846392 -0.056872275

block_2.2.bias f4 [10]
00000000: 4efe 7a3d aabf c2bd 76e0 e53d f5f1 523d
00000010: 72ed e8bd 165a c23c 7e97 4f3e 4290 373c
00000020: 0082 e53e 6d88 0cbe
0.06127768 -0.09509213 0.11224453 0.05150028 -0.11373414 0.023724597 0.20272633 0.011203827
0.44825745 -0.13723917

classifier.1.weight f4 [10, 490]
00000000: 54d8 babb fbb2 09bd ded1 ddbd 2b1c bbbb
00000010: 2565 8bba 1b16 dd3c cad5 ec3c 59af 84bd
00000020: bc47 79bd f684 10bd 1fcf 123c 135f 073d
00000030: cdde f73c 4212 813c 56c5 5fbc 6216 04bd
00000040: b4da 0a3d 2bf6 b4bc d64d 6f3d 3c95 803d
00000050: 8a01 43bd 5ec1 febb 616b 3f3c 7efb 1d3c
00000060: fdd1 9fbc eaca 3e3d 748d 023d ebb5 2bbd
00000070: e857 f2bc 043c 4c3c 8838 e63c 9ac9 85bd
00000080: 4af0 f03b c25a c53b 0ae1 55bd ed41 283c
00000090: 14ff 7dbb 9551 94bc a350 313c bccb 8abd
000000a0: 13c5 33bb 0946 f83c 1243 b03c c4d5 723d
000000b0: a877 2cbc 75e0 44bc d220 fbbb 33c3 8cbc
000000c0: 6749 ca39 6577 ce3b 9ef3 57bc 6816 bcbc
000000d0: dc26 e9bc a1e2 4b3c 5d00 1fbd 5c99 383d
000000e0: 0d4d 413c bfb2 1dbd d8c6 1b3d 1bf7 ea3d
000000f0: 2a2c 953d fdab c1bc 85b8 c4bc 2251 32bc
00000100: f10c b43c a2b5 343d 56fe f03d e895 a93d
00000110: af21 a83d 78f3 173c f579 07bc 684e 0c3a
00000120: 6b30 21bd b46e 0e3d 590e 6f3c 556d 7fbc
00000130: 5bb0 87bd 4143 113d 18c1 0a3d 79cf 233c
00000140: d670 b9bc 79b2 10ba 286b 5ebd 76a7 7abd
00000150: 0327 27bd d01c a03c 4102 8cbd 1792 04bd
00000160: 1f0c 9cbc d3b3 6a3c c289 8339 7062 033d
00000170: 5e60 58bd 1b29 49bc 76fd 6bbd e543 86bd
00000180: e5f8 973b d762 80bc 7a31 af3c 1684 ec3b
00000190: 46c8 b7bc 9952 2f3d a9b9 ac3d 83fa 353e
000001a0: ed67 90bc 8ed5 0b3e 4634 343d cde3 693d
000001b0: 0bdc 9a3d f71b ae3d f5ac 1d3c c1aa 173e
000001c0: 31f4 2a3e 58e1 2c3e e09d 403d 5ecf 813b
000001d0: 0a0b d03d a930 9b3c d7ce 953d ea8c 663d
000001e0: 47a7 62bd 46a5 e2bc 7852 bebd 573d 8f3d
000001f0: b8bb 39be 550f 30bd 0ee1 9cbc d079 aabd
00000200: e49d 5d3c 1472 29bd 1728 0ebd 5726 63be
00000210: 5ed0 13bc 7391 adba 1e96 403d 6c20 f8ba
00000220: aa8d 24bc 7981 6dbd dfa7 dbbd 172e 86bd
00000230: 3f32 89bd 2430 b73d ee96 e7bb 7d8a 5e3d
00000240: b8b4 21bd 2eba 05bb 55f6 d7bd 584a 10bc
00000250: 98b9 e83c 0609 ba3c 3965 ef3c cd55 613c
00000260: d3a3 7ebb ff00 b23c 5112 e8bc 5dbb 8d3c
00000270: e787 ba3c 63b3 cbbc 1f9e 83bb dc8a 08bd
00000280: ef79 00bd 3f67 683b 76ef 2d3b e0b9 3bbc
00000290: 7e32 443c 170c 12bd c2b7 d3bc 9afa 2d3d
000002a0: bfc9 27bd def7 bb3c 85e5 153d 978e 0b3d
000002b0: 2610 fb3c 745e 0bbc 981d ac3b 216e 61bc
000002c0: 1ff5 d63a d8e2 073d 9501 b8bc e096 a9bc
000002d0: f6f7 2fbd e73b db3b 63a7 e23b 9e13 4e3d
000002e0: d1b0 383b 8324 6bbd 07e1 883c f65d 513d
000002f0: cda7 6b3c b15f 963c 7955 e1bc 5222 17bd
00000300: d0b6 ed3b 1932 afbc 0627 f83b 37a6 d6bc
00000310: 7b03 783c 3673 053c f7fa c1bc bbac 52bc
00000320: 4a64 9f3c f3d3 c33b 407b 243d 6db4 babc
00000330: 108c 213d 51dc e937 25bb 84bc 9b40 71bc
00000340: 436b f1bc e276 123c 30d3 d3bb 3f08 45ba
00000350: b8d1 a8bc 0ef5 4a3c f3bb 87bd 5165 2cbc
00000360: 9694 513d f07c ef3b 5727 25bc 327b 21bd
00000370: d7ba ac3c e85b 243d c5ea 343d 4fd0 eebb
00000380: 9c12 763c 2bdb 2e3d 1662 f53b 5b19 bbbc
00000390: cd6e 29bd bab9 37bb 24b4 76bb 7466 243d
000003a0: fd81 a6bc 7f2e 8b3c 96a8 8dbc da4e 89bc
000003b0: d982 493c c14a 9ebd 60aa 083d 5d49 d93c
000003c0: 91ff 07bd da07 9f3c 76ff 5bbb e0d1 26bc
000003d0: a394 5abd a59b 33bd 2736 acbb e15a aa3c
000003e0: ccb1 81bb 6333 a4bc 7c02 233c 2537 0d3c
000003f0: 6390 5bbc c9e6 0fbd 1059 c4bc d0f6 debb
-0.005702058 -0.033617955 -0.108310446 -0.005710145 -0.0010635002 0.02698808 0.028910536 -0.064787574
-0.060859427 -0.03528305 0.008960514 0.033049654 0.030257607 0.015755776 -0.013657888 -0.03224791
0.033899978 -0.022090038 0.05842384 0.06278464 -0.04760889 -0.007774516 0.011683316 0.00964248
-0.01950931 0.046580233 0.03187318 -0.041921537 -0.029582933 0.012465481 0.028103128 -0.06532593
0.0073528634 0.006022782 -0.052216567 0.010269624 -0.0038756775 -0.018105308 0.010822448 -0.067771405
-0.0027430698 0.030306833 0.021516357 0.059285894 -0.010526575 -0.012016405 -0.0076638246 -0.017182922
0.0003858313 0.006300854 -0.013180641 -0.022959903 -0.028460912 0.012444169 -0.038818706 0.04506813
0.0117981555 -0.038500544 0.03803143 0.11472913 0.07283814 -0.02364158 -0.024013767 -0.010883601
0.021978827 0.04411853 0.11767261 0.082805455 0.0820955 0.009274356 -0.008268823 0.00053522596
-0.039352816 0.034773543 0.014590823 -0.015590032 -0.06625434 0.03546453 0.033875555 0.009998196
-0.022636812 -0.00055197586 -0.05430141 -0.06119486 -0.04080869 0.019544989 -0.068363674 -0.032365885
-0.019048749 0.0143251 0.00025088905 0.0320763 -0.052826278 -0.012277867 -0.057614766 -0.065559186
0.004637825 -0.01567213 0.021385897 0.0072178943 -0.022434365 0.04280338 0.08433849 0.17771344
-0.01762768 0.13655683 0.043995164 0.057102013 0.07561501 0.085014276 0.009623756 0.14811231
0.16694714 0.16882837 0.04702556 0.0039614877 0.101583555 0.018944101 0.07314842 0.05628673
-0.05533531 -0.0276667 -0.092930734 0.069941215 -0.18138015 -0.04298337 -0.019150283 -0.08324015
0.013526414 -0.04136856 -0.0347062 -0.22182594 -0.009021847 -0.00132422 0.047018163 -0.0018930561
-0.010043541 -0.057984803 -0.10725378 -0.0655176 -0.06699037 0.08944729 -0.007067553 0.05433129
-0.039478987 -0.0020405161 -0.10545031 -0.008806787 0.02840881 0.02270938 0.029223071 0.013753367
-0.003885497 0.02172899 -0.028329046 0.017301256 0.022769881 -0.024865812 -0.0040166522 -0.03333555
-0.031366285 0.003546193 0.0026540435 -0.01145789 0.011974929 -0.03565606 -0.025844458 0.04247532
-0.040963884 0.02294534 0.03659584 0.03407153 0.030647349 -0.008506406 0.0052525513 -0.013759167
0.0016399956 0.03317532 -0.022461692 -0.020701826 -0.042961083 0.0066904905 0.0069169267 0.050311677
0.0028181563 -0.057407867 0.016708864 0.051115 0.014383269 0.018356176 -0.027506577 -0.036897965
0.007254459 -0.021386193 0.0075730113 -0.026202304 0.015137549 0.008145144 -0.02367924 -0.012858565
0.019457001 0.005976194 0.040156603 -0.022791112 0.039440215 2.7878357e-05 -0.016202519 -0.014724876
-0.029470092 0.008939477 -0.0064643845 -0.00075161824 -0.020607814 0.012387527 -0.06627645 -0.010522203
0.051167093 0.007308595 -0.01008018 -0.03942413 0.021085186 0.04012671 0.044169206 -0.007288016
0.015019085 0.042689484 0.0074884994 -0.022839239 -0.041365433 -0.0028034286 -0.0037643993 0.04013677
-0.020325655 0.016989945 -0.017292302 -0.016761232 0.012299263 -0.07729102 0.033365607 0.02652424
-0.03320271 0.019412924 -0.0033569015 -0.010181874 -0.053364407 -0.043849606 -0.005255479 0.020795288
-0.0039579626 -0.020044034 0.009949323 0.0086191045 -0.013401124 -0.035132203 -0.02396825 -0.0068043247

classifier.1.bias f4 [10]
00000000: 4807 663d bff5 8cbd 4aa7 ab3d 4c0a b6bc
00000010: 81e5 41be 720e c03d d094 7a3d 79c8 93bc
00000020: 4555 a73c 591c 5cbd
0.056159288 -0.0688281 0.08381517 -0.022221707 -0.18935205 0.09377755 0.061177075 -0.018039929
0.020426402 -0.053737972
